tests/_test_data/utils/step_100.pt (torch_old, 28118 bytes, 4 tensors)

weight_ih_l0 f4 [40, 10]
00000000: b236 603e 50da df3c 20a3 fd3d a0b0 033c
00000010: e22d 523e aa3f 52be ec87 b1bd c213 733e
00000020: 489a b23d 0414 b0bd fd05 803e c205 7f3e
00000030: 1835 953d 6b69 15be 534a 04be 4afe 183e
00000040: dec6 debd cff7 813e 4ca6 fe3d b55c a13e
00000050: f850 8dbd eb43 8c3e 8061 ac3b 3aae 023e
00000060: b22e 5bbe a0b3 81bd 0038 de3b a0d1 17bc
00000070: f26a 09be 8e8e 663e b8bd 1ebd 9c24 82be
00000080: 682e 063e 68f7 5cbd 5747 9e3e 01fd 8ebe
00000090: 38dd 063d 0eaf 703e b5ee 25be 28ef 7c3d
000000a0: a770 8d3e 25dc 39be 008a c7ba b2dc 8fbd
000000b0: f0f7 653d 1815 913d 1fd2 8c3e 9c0a f53d
000000c0: e01e 5bbe 87e8 8c3e 0c52 c8bd 504c f33c
000000d0: ccbb d13d d0ba 49be 9db1 9abe 5cf9 093e
000000e0: a06e 30bd e63d 1dbe da45 503e d074 6bbd
000000f0: bac7 7bbe 9ac1 4a3e a622 48be 6c9d 26be
00000100: 285b 6cbe 63eb 943e 501b a13d 84cf 043e
00000110: f034 f4bc 5a86 473e 8ad9 533e 48b6 663d
00000120: a464 bc3d 3d15 09be 88f9 17bd f967 953e
00000130: 5480 d03d a2c3 5d3e ba34 1f3e b2f0 93be
00000140: 603f 193e 60d7 7c3c 51f9 913e 3f86 92be
00000150: 4ac6 85be 2568 8b3e 10ea 2d3d 6459 ed3d
00000160: ee0c aebd 60ab 2c3d 0965 8e3e 416b 86be
00000170: c0e6 c0bb ffac 46be 8a1f 8fbe 7a75 323e
00000180: 24a6 073e 80e3 66bc 2cf9 bfbd fce6 85bd
00000190: 96c5 a2bd 9e64 273e 80ef c43d be35 9ebd
000001a0: 241d 173e c945 8abe 3060 9ebe 608a 173d
000001b0: 585c 053d 80a0 babc d076 46bd 4252 8dbe
000001c0: 6075 ee3c c847 16bd dbfe a03e d8de a23d
000001d0: 2b46 a1be 243e 97bd fbb7 8c3e ea98 533e
000001e0: 0e25 673e f09d 00bd 30ae 84bd c847 5cbe
000001f0: c0d2 0b3c 4abb 003e 6056 7dbd 8023 39bd
00000200: 32cd 513e 1d4e 893e de9e 463e 50a9 aa3d
00000210: d21c 0dbe 86f2 673e 2c16 81bd 003c 553b
00000220: 1cce 53be 0a05 733e 70aa 4fbd 8cf0 d1bd
00000230: 485c 533d b949 933e 38e6 74bd ab54 843e
00000240: 4903 25be 51d4 893e 1252 473e c6c9 e2bd
00000250: 30dd 85bc eccd b33d 202d 53bd dbd5 12be
00000260: 66c6 5d3e d88e 8c3d 8087 81bd ecdf bc3d
00000270: 6055 08bd 2058 27bc 458f 49be 82c9 783e
00000280: 9a01 b8bd 04e3 8abe 22ab 733e d6e7 d1bd
00000290: 87dc 0cbe c6f1 02be 7678 aabd bc3e 7dbe
000002a0: 18ad 363d 6af9 763e d5d7 a03e 1657 7f3e
000002b0: 1e89 9fbe 809a a43b 4a18 46be b3e7 40be
000002c0: d599 1fbe 5cc1 c53d 0e7f 9ebe e0e4 37bc
000002d0: be0e 14be 7e7c 99be 18df 22be f0a4 34bd
000002e0: 785f 85be a04e 2e3d a015 a23d da0d 3abe
000002f0: 387d c9bd 9046 2abd 5bdd 3fbe adcc 44be
00000300: 359e 30be c8b7 183d 5c26 8abd dcbc 72be
00000310: fed2 7c3e 0688 483e e0de f5bc 7607 663e
00000320: 186c 463d f2d7 623e 2bfa 9c3e eeb6 f3bd
00000330: 8ca8 b13d 7e71 753e 18a3 013e 905a e6bc
00000340: 5b0c 943e 9321 893e 00ca c0bb 0091 d0bd
00000350: c9f1 0cbe 10ec 403d 200f 403d 05dc 4abe
00000360: 9aaa e4bd 4c18 81bd 3080 7cbd 81ae 8b3e
00000370: a3ea 4fbe 9db5 87be 11cd 92be 4a97 13be
00000380: c0bb d63c a4e3 8e3d c005 ef3b eb5d 8c3e
00000390: f49a 1ebe 537d 8d3e a4a6 e03d 24bd ce3d
000003a0: 46ca b2bd 5893 05bd ba62 55be 9e9e 1e3e
000003b0: 40fc debd cf71 9d3e 6240 23be babb 453e
000003c0: 2250 73be 9ddb 38be e08e 013c a800 963d
000003d0: ebb8 813e 88b1 363d 8021 cd3b 0fbb 9f3e
000003e0: 8abe 773e 9c88 9a3d 3818 463d c457 9d3d
000003f0: ad22 24be 00c9 023e 8f97 873e 5d5d 25be
0.21895865 0.02732578 0.12384629 0.008037716 0.20525315 -0.20532098 -0.08668503 0.23738006
0.08720833 -0.08597568 0.2500457 0.2490454 0.072855175 -0.14590995 -0.12918977 0.14940754
-0.10877775 0.25384375 0.12434062 0.31516042 -0.06900209 0.27395567 0.0052606463 0.12761775
-0.21404532 -0.06333089 0.006781578 -0.009266287 -0.13419703 0.22515318 -0.03875515 -0.25418556
0.1310364 -0.053946882 0.30913803 -0.27927402 0.032925814 0.23504278 -0.16204341 0.061751515
0.2762501 -0.18150385 -0.0015223622 -0.07024516 0.056144655 0.070841014 0.2750406 0.11964914
-0.21398497 0.27521154 -0.09781274 0.029699475 0.102408975 -0.1970017 -0.30213633 0.1347403
-0.04307425 -0.15355644 0.20339146 -0.057484448 -0.24587908 0.19800416 -0.19544467 -0.16270989
-0.23081648 0.29085836 0.078665376 0.12969786 -0.029810399 0.19484845 0.20688453 0.05632618
0.09198883 -0.13387008 -0.037103206 0.29180887 0.10180727 0.21656659 0.15547457 -0.28894573
0.14965582 0.015432209 0.28510526 -0.28618047 -0.26127845 0.27227893 0.042459548 0.115893155
-0.0849856 0.042155623 0.2781146 -0.26253703 -0.0058868825 -0.1940193 -0.2795375 0.17427626
0.13246971 -0.014092326 -0.09373698 -0.065381974 -0.07947843 0.16346976 0.096159935 -0.07725094
0.1475721 -0.27006367 -0.3093276 0.0369972 0.03255877 -0.02278161 -0.048453152 -0.2760182
0.029108703 -0.03668955 0.3144444 0.0795266 -0.31498846 -0.07384899 0.27484116 0.20663801
0.22572729 -0.03140062 -0.06478536 -0.21511757 0.008534133 0.12571445 -0.06184995 -0.04519987
0.20488432 0.26817408 0.1939654 0.08333075 -0.13780525 0.22651109 -0.06303057 0.0032536983
-0.20684093 0.23732391 -0.05069965 -0.10250959 0.051601678 0.28767183 -0.059789866 0.25845847
-0.16114534 0.26919797 0.19464901 -0.110736415 -0.016340822 0.08779511 -0.051556706 -0.14339392
0.21657714 0.06863183 -0.06324673 0.09222397 -0.033284545 -0.010213882 -0.19683559 0.24295619
-0.089846805 -0.27126324 0.2379575 -0.10249297 -0.13756 -0.12787542 -0.08323757 -0.24730963
0.04459867 0.24118581 0.31414667 0.24935564 -0.311593 0.0050233006 -0.19345203 -0.18838386
-0.15586026 0.09656021 -0.3095631 -0.011224002 -0.14458749 -0.29977793 -0.15905416 -0.04410261
-0.260494 0.04255545 0.07914281 -0.18169346 -0.09838337 -0.0415712 -0.18736784 -0.19218703
-0.17247851 0.037284642 -0.06745598 -0.23704857 0.24689862 0.19583139 -0.030013502 0.22463784
0.04844293 0.22152689 0.30659613 -0.119001254 0.08674726 0.23969075 0.12659872 -0.028119355
0.28915676 0.26783428 -0.0058834553 -0.101839066 -0.13764109 0.047100127 0.046889424 -0.19810493
-0.11165352 -0.063034624 -0.061645687 0.27281573 -0.2030435 -0.26505747 -0.28672078 -0.14413181
0.026212573 0.06977013 0.0072943866 0.27415404 -0.15488797 0.27634677 0.10969284 0.100946695
-0.08729987 -0.03261122 -0.20838442 0.15490195 -0.108879566 0.30750892 -0.15942529 0.19309893
-0.23761037 -0.18052526 0.007907599 0.07324344 0.25336394 0.0446029 0.006260097 0.31197402
0.24193779 0.075455874 0.04836294 0.076827556 -0.16028853 0.12771988 0.26482818 -0.16148897

weight_hh_l0 f4 [40, 10]
00000000: f2d9 423e 2e6c f6bd 4096 2b3e d6ab 083e
00000010: 3e9c a1be 3344 1ebe b03c 9cbd 3032 99bc
00000020: 766c 633e 4c3d 1cbe 771f 813e c0cf f3bc
00000030: 8625 4b3e b073 ca3c eaac 5fbe a23f 96bd
00000040: 36f3 263e a416 eabd 2ee6 8bbd ebfd 2abe
00000050: b852 333d 42e7 8abd d058 dd3d 3c07 bf3d
00000060: a249 36be 40db 873d 3b7b 92be 8007 e03b
00000070: 6be4 55be 089e ee3d 8087 28bd e096 c53c
00000080: da06 5abe 8d5f 983e e8f4 95be 060b 18be
00000090: 2065 61bc 20af 013e eaf3 e8bd 38ce b1bd
000000a0: 6641 e4bd 0fba 893e d2b5 79be 78db 8abe
000000b0: c0e6 d23c d57c 873e 1951 8bbe fafd 86be
000000c0: e61d 563e 46a0 c8bd c6b1 5b3e b2e7 9bbd
000000d0: cc09 81be 63ff 8a3e 80cb dc3c a2e1 383e
000000e0: 3c18 52be 301b b93d f21e 363e 02df 5bbe
000000f0: 3d5b 983e 36f8 303e e057 bcbc 2601 3e3e
00000100: 9f26 43be a02c 55bd 79c2 933e c8cc 0dbd
00000110: 3c33 083e 1e82 2ebe 00f4 743c 555c 0bbe
00000120: d84d 89be 7812 4a3d 45ce 9c3e 17df 84be
00000130: 9808 5ebe e440 bcbd e0d1 44bd b4bd 57be
00000140: 27e8 50be e213 49be 13ef 973e 60f2 25bc
00000150: 965b 94be 8933 8f3e 5836 38bd b815 783d
00000160: caae 223e 10d4 48bd 40de 31bc 00d4 e0bd
00000170: 15e8 11be eedc c5bd ccf5 e3bd 3e67 413e
00000180: d0e2 2a3e c0c3 673d 4447 fb3d 0f3c 963e
00000190: 80ec e93d 9ad0 9dbe 942b 0d3e a840 5ebe
000001a0: 7e87 21be 0091 123c 301c ccbd c8c1 953d
000001b0: e2c7 143e 8edb 3a3e cee1 723e 7e14 5cbe
000001c0: 2a93 29be 8159 983e e05f 6abd 813c 2fbe
000001d0: 0c9c 5ebe 521d ccbd e61a 403e d7a5 27be
000001e0: 4958 843e 70af a33c 4ada 85be 00d8 a2bc
000001f0: c8f3 c03d 0a01 653e 889d 0e3e 2fb7 983e
00000200: 42e1 6d3e d099 ecbc 3619 eabd fa1e 1c3e
00000210: e086 fbbc c5e4 6ebe 6f02 9e3e 4d1c 943e
00000220: 87ae 863e 282e 903d 2875 1a3e d9c3 2bbe
00000230: 08f6 56bd e05f 25bd 4014 e63c 762c 90be
00000240: 61a4 04be 3c2d bc3d 986d 923d edfb 8d3e
00000250: a030 28bd bcce e23d 549d 81bd 7753 4ebe
00000260: 02de 6cbe 58c4 223e 000c dfb9 2049 67bc
00000270: 061e 9dbe 8f6c 923e 5e19 123e 8ccd bebd
00000280: 9d57 37be 0a3c 243e 0071 01bc 9a02 aabd
00000290: 7cb3 183e a886 4dbd 75d6 80be 801f 0e3d
000002a0: 1cea 8abe 6a8c 123e 704b 7dbd 386a 3ebd
000002b0: a823 3a3d a8b5 7ebd fc78 9b3d 3a9d 6f3e
000002c0: b41a dc3d 9f36 873e 104d 613d 0a8c 433e
000002d0: 624a 4e3e 4098 c4bb 800d 293b f804 f23d
000002e0: 9f2d 853e 2af3 003e a1d5 833e 806e 133b
000002f0: 9093 e7bc 307d 20bd 56d6 713e 74e4 7bbe
00000300: b03e 28be da06 edbd 6036 b1bc 4ed5 2b3e
00000310: a838 24bd 58c2 593d 58e4 9d3d dab8 9abd
00000320: 5ce3 973d 92ba 4c3e be20 c3bd 9b64 803e
00000330: 9bc0 97be 5259 073e f034 423d 83e3 92be
00000340: 2727 863e fac2 6bbe d467 223e eeaf 96be
00000350: 98a5 4a3d 7033 7ebd 2886 393d 60fc 74be
00000360: e33c 48be 7a55 5b3e 8c79 253e 9093 ab3d
00000370: fbbf 90be 38dc a53d 247e b8bd 7ee0 7b3e
00000380: 149a 0d3e 88a0 773d 90c3 1d3e e0df d93c
00000390: 2d31 55be 0823 76be b2a3 87be 7416 98bd
000003a0: f49f c4bd 84d3 37be bae7 6f3e 6b1f 993e
000003b0: 2dc2 3ebe c857 ae3d e49d 813d d14c 8c3e
000003c0: 6b8f 17be c8ee 1bbd 095f 95be fc46 023e
000003d0: 5092 d1bc ba8b 4f3e d872 943d f8d1 62bd
000003e0: 6618 87be b2a9 323e ee85 3d3e eac2 263e
000003f0: 359d 943e 4571 963e ba7e 9ebd b8d8 64bd
0.19028452 -0.120323524 0.16756535 0.133468 -0.31564516 -0.15455703 -0.07628763 -0.01870069
0.22209343 -0.15257758 0.25219318 -0.029762149 0.19838533 0.024713367 -0.21843305 -0.07336356
0.16303715 -0.114300996 -0.06831013 -0.16698425 0.04378006 -0.0678239 0.10807955 0.09327552
-0.17801526 0.066336155 -0.28609642 0.0068368316 -0.20887916 0.11651236 -0.041144848 0.024119794
-0.21291676 0.297604 -0.2928841 -0.14847955 -0.01375702 0.12664461 -0.11374648 -0.08681911
-0.11145286 0.26899764 -0.24385765 -0.27120566 0.025744796 0.26462427 -0.2721031 -0.26365644
0.20909843 -0.09796195 0.21454534 -0.07612552 -0.25202787 0.2714797 0.026952505 0.18054822
-0.20517057 0.09038389 0.17785242 -0.2147179 0.2975711 0.17282185 -0.02299112 0.18555126
-0.19057702 -0.05204451 0.28859308 -0.034619123 0.13300794 -0.17041823 0.014950752 -0.1360944
-0.26817203 0.04933402 0.3062612 -0.25951454 -0.21682966 -0.091920644 -0.048051715 -0.2106846
-0.20401059 -0.19636491 0.29674587 -0.0101285875 -0.28976125 0.27969006 -0.0449737 0.060567588
0.15886989 -0.049030364 -0.010856211 -0.10977936 -0.14248689 -0.096612796 -0.111308664 0.1888704
0.16688085 0.056583166 0.12269452 0.29342696 0.11422062 -0.30823213 0.13786155 -0.21704352
-0.15774342 0.0089457035 -0.09966314 0.073123515 0.14529374 0.18247816 0.2371895 -0.21492192
-0.16560045 0.29755786 -0.05722034 -0.17112924 -0.21739215 -0.0996653 0.18760261 -0.16371857
0.25848606 0.019981116 -0.26143104 -0.019878387 0.094214976 0.22363678 0.13927281 0.29827258
0.2323046 -0.028881937 -0.1143059 0.15246192 -0.030703962 -0.23329456 0.30861232 0.28927842
0.2630503 0.070400536 0.15083754 -0.16773929 -0.052480727 -0.040374637 0.028085828 -0.2815892
-0.1295333 0.09188315 0.071498096 0.27731267 -0.041061997 0.11074588 -0.06328836 -0.20149027
-0.23131564 0.15895212 -0.00042542815 -0.014116555 -0.3068697 0.2859845 0.1426749 -0.09316549
-0.17904516 0.16038528 -0.007900476 -0.083012775 0.14912218 -0.050177246 -0.25163618 0.03469801
-0.27131736 0.14311376 -0.06183952 -0.046488017 0.04544416 -0.06218496 0.07591435 0.23399821
0.10747281 0.2640886 0.055005133 0.1909639 0.20145562 -0.005999595 0.00257954 0.11817354
0.2601137 0.1259276 0.25748923 0.0022496283 -0.028268605 -0.039181888 0.23616919 -0.24598867
-0.16430163 -0.115735725 -0.021632373 0.16780588 -0.040093094 0.053163856 0.07709569 -0.07554789
0.07416412 0.19993046 -0.095277295 0.25076756 -0.29639134 0.13217667 0.047413766 -0.28689203
0.26201746 -0.23023596 0.1585992 -0.294311 0.04947433 -0.062060773 0.045293957 -0.23924398
-0.19554476 0.21419325 0.16159648 0.08377755 -0.2827147 0.08098644 -0.090084344 0.24597356
0.13828307 0.06045583 0.15406632 0.02659601 -0.2081954 -0.24036801 -0.26492077 -0.074261576
-0.09600821 -0.1795178 0.2342824 0.29906783 -0.1862876 0.08512837 0.06328943 0.27402356
-0.14800803 -0.038069516 -0.2917407 0.12722391 -0.025582463 0.20268145 0.07248467 -0.055376023
-0.26385802 0.17447546 0.18508121 0.16285291 0.2902619 0.29383293 -0.07739015 -0.05587074

bias_ih_l0 f4 [40]
00000000: 8014 1dbd 162e b4bd 5065 f83d 2819 d83d
00000010: f04d 2fbe ea9e d0bd 8218 063e ee88 cbbd
00000020: 7526 2dbe 0e18 23be 80ed 3dbb 76fb 643e
00000030: 24dd 253e 0f47 823e b6a6 94bd 106d 493d
00000040: d83d 873d c5c0 913e 9064 0fbd d64d 3dbe
00000050: ad70 8f3e 1dab 9b3e fe19 233e ba73 ecbd
00000060: 5080 8fbe bc40 fa3d ae61 65be d889 27be
00000070: 5ed7 613e c222 793e ad33 3ebe 08a0 c5bd
00000080: a26c 193e 0e43 e1bd f783 90be 1049 2c3d
00000090: 4940 60be 0450 ad3d f56e 963e 3258 443e
-0.03834963 -0.08797853 0.12128699 0.10551673 -0.17119575 -0.101865605 0.13095286 -0.09938227
-0.16909201 -0.15927145 -0.0028980672 0.2236155 0.1619764 0.25444838 -0.0725836 0.049176276
0.06603593 0.28467384 -0.035008013 -0.18486723 0.28015652 0.30403987 0.15927884 -0.115455106
-0.28027582 0.12219378 -0.22400543 -0.16361177 0.22054812 0.24329665 -0.185744 -0.09649664
0.14982846 -0.10999118 -0.2822568 0.042061865 -0.21899523 0.084625274 0.29381528 0.19174269

bias_hh_l0 f4 [40]
00000000: a0e3 f23c cac9 babd 7497 d13d 824a 8ebe
00000010: be9e 403e 9c81 0dbe 7038 513d 190f 85be
00000020: 68c6 e03d 66e0 323e 00cf c6ba aa07 d7bd
00000030: 1013 9e3c 9bb1 13be c6c2 153e 1496 41be
00000040: 80ac 7dbc c755 9f3e e0bd 293e 5062 3dbd
00000050: 30f8 4abd e8ff 063e 7395 843e 0046 04bd
00000060: 70ae c1bd 802f 7d3d e229 eebd 607c c23c
00000070: 2c89 9cbd 1d0c 6ebe 1b7d 37be a28d 8ebd
00000080: 208f 263d 1aca 4e3e 9ea1 4a3e c615 5a3e
00000090: 5d7f 8e3e 7ae7 febd 601c fe3c ece0 263e
0.029649556 -0.091205195 0.102339655 -0.2779122 0.18810555 -0.13818973 0.051079214 -0.2598808
0.10975343 0.17468414 -0.0015167892 -0.10499509 0.0192962 -0.1442322 0.14625081 -0.18904907
-0.015483022 0.3112013 0.16576338 -0.046236336 -0.049553096 0.13183558 0.2589527 -0.03229332
-0.094570994 0.061812878 -0.11629082 0.023740947 -0.07643351 -0.23246808 -0.17918818 -0.06960608
0.04066384 0.20194283 0.19788215 0.21297368 0.27831545 -0.124464944 0.03101939 0.16296738
