tests/_test_data/utils/step_100.pt (torch_old, 27711 bytes, 4 tensors)

weight_ih_l0 f4 [40, 10]
0	0x3e920d25	0.28525653
1	0xbe966e91	-0.2938123
2	0xbe1ad64f	-0.15120815
3	0xbe9d71e7	-0.30750963
4	0x3df25294	0.11832157
5	0x3e32c60c	0.17458361
6	0xbe8c8cb2	-0.27451092
7	0x3e1d2948	0.15347779
8	0x3e11e516	0.14247546
9	0x3d5d3b70	0.054011762
10	0xbe8e93f2	-0.27847248
11	0xbe9e4e47	-0.30919096
12	0xbdfdb462	-0.12387921
13	0x3e0c7000	0.137146
14	0xbe14092e	-0.14456627
15	0xbdfef36a	-0.12448771
16	0xbe011f6b	-0.12609641
17	0x3da09408	0.07840735
18	0x3c65ec20	0.014033347
19	0xbe5f4a4c	-0.21805686
20	0xbe13e542	-0.14442924
21	0x3e8a5063	0.27014455
22	0x3e3cccf6	0.18437561
23	0x3a814100	0.000986129
24	0x3dec20e4	0.11529711
25	0xbe2f8616	-0.17140993
26	0x3e50b0d2	0.20379952
27	0xbdd29f08	-0.10284239
28	0xbda23cfa	-0.079217866
29	0xbe8ea75f	-0.2786207
30	0xbdd90c8e	-0.10598098
31	0xbe9d1d7d	-0.3068656
32	0xba79f000	-0.0009534359
33	0xbe84ed65	-0.25962368
34	0xbe4c3a48	-0.19944108
35	0xbe95ab97	-0.29232475
36	0xbe85c669	-0.26127937
37	0x3dfdbd64	0.12389639
38	0x3e0b68dc	0.1361422
39	0x3de2f420	0.110817194
40	0x3e5bb15a	0.21454373
41	0x3bb9db00	0.005671859
42	0xbdd966ce	-0.106153116
43	0x3d888110	0.06665242
44	0x3dba7050	0.09103453
45	0xbd9ec13c	-0.077517
46	0xbe1213c3	-0.14265351
47	0x3d7344e0	0.059391856
48	0xbe8a8ac9	-0.2705901
49	0x3e1fbb56	0.15598807
50	0x3dc68864	0.09693983
51	0xbdfe4ee6	-0.124173924
52	0xbe078475	-0.13234122
53	0xbd79bcd8	-0.06097111
54	0x3e8d3a71	0.2758365
55	0x3e25aabe	0.16178414
56	0xbe1bd52e	-0.1521804
57	0xbd93a070	-0.072083354
58	0xbd44dd68	-0.048062712
59	0xbe0420bd	-0.12903114
60	0x3e87511d	0.26429072
61	0xbca89c60	-0.020582378
62	0x3e099102	0.13434222
63	0xbe86a9c3	-0.26301393
64	0xbdd42708	-0.10359007
65	0xbe6c84a0	-0.23097467
66	0x3e92f1c3	0.28700075
67	0x3e732c72	0.23747423
68	0xbd79baa0	-0.060968995
69	0x3ddffb88	0.10936648
70	0xbdb5fc42	-0.08886005
71	0x3e439d9a	0.19103089
72	0x3e973be3	0.29537877
73	0x3e13b6d8	0.14425218
74	0xbe8a856d	-0.2705492
75	0xbe08d2f5	-0.13361724
76	0x3daeaea4	0.08529404
77	0xbe075015	-0.13214143
78	0x3e567156	0.20941672
79	0x3e86b5eb	0.26310667
80	0x3e244ab6	0.16044125
81	0xbde179c4	-0.11009553
82	0xbe222c54	-0.15837222
83	0xbc652760	-0.0139864385
84	0xbe57238d	-0.21009655
85	0xbda3de76	-0.080014154
86	0x3e961ddf	0.29319665
87	0xbe7d8196	-0.24756464
88	0xbe1746da	-0.14773121
89	0xbd16eee8	-0.036848933
90	0x3e143c72	0.14476183
91	0xbe9b2ad2	-0.30306107
92	0x3daf71d0	0.0856663
93	0xbe25ee71	-0.1620424
94	0x3db27208	0.08713156
95	0xbe907a02	-0.28218085
96	0x3e604a52	0.21903351
97	0x3e912301	0.28347018
98	0xbd08b2e8	-0.033373743
99	0xbcd02e70	-0.025412768
100	0xbdd13a48	-0.102161944
101	0xbd8257f0	-0.06364429
102	0x3e885cad	0.26633206
103	0x3e4e725a	0.20160809
104	0xbcc7ec10	-0.024404556
105	0xbe2552b3	-0.16144828
106	0x3e6b5e96	0.229853
107	0x3d96bb44	0.07359937
108	0x3ea0a65d	0.31376925
109	0xbd3c1510	-0.045918524
110	0x3e8fee71	0.28111604
111	0xbe883c39	-0.26608446
112	0xbb988980	-0.004655063
113	0xbd8779c8	-0.06615025
114	0x3e79b396	0.24384913
115	0x3d032678	0.03201911
116	0xbe9e08e3	-0.30866155
117	0xbe4dc7b1	-0.20095707
118	0x3da6af20	0.08138871
119	0xbe87b301	-0.26503757
120	0xbe36218a	-0.17786232
121	0xbe8e39c6	-0.27778453
122	0x3e45802e	0.19287178
123	0x3e17667e	0.14785191
124	0x3d0fd0d8	0.03511128
125	0xbe2da8c8	-0.16958916
126	0x3ca3e6c0	0.020007491
127	0x3d9d6ad4	0.076863915
128	0xbdff6cb0	-0.12471902
129	0xbc82c630	-0.015963644
130	0xbd5b35a0	-0.053517938
131	0x3cee7e00	0.029112816
132	0xbe662368	-0.22474444
133	0xbe6f62d4	-0.23377544
134	0xbcd1c040	-0.025604367
135	0x3d510108	0.051026374
136	0x3e185df6	0.14879593
137	0x3e7b16d6	0.2452043
138	0xbe86ae86	-0.26305026
139	0xbd7a1528	-0.061055332
140	0xbde6e306	-0.1127377
141	0xbd401600	-0.04689598
142	0x3e97540b	0.29556307
143	0xbe2771c3	-0.1635199
144	0xbe498d41	-0.1968279
145	0xbe252c9a	-0.16130295
146	0xbea0d14d	-0.31409684
147	0x3e16e922	0.1473737
148	0x3e8ad397	0.27114555
149	0x3e059512	0.13045147
150	0x3e404c96	0.18779215
151	0xbad26f00	-0.0016054809
152	0x3dab0ce0	0.08352065
153	0xbe0ab8da	-0.13547078
154	0xbe1a9cf9	-0.15098943
155	0x3df00420	0.11719537
156	0xbe3de85d	-0.18545671
157	0x3e24d71a	0.1609768
158	0xbe36713d	-0.17816634
159	0x3d655380	0.055987835
160	0xbdac2974	-0.08406344
161	0xbd99cbe0	-0.07509589
162	0x3db769a8	0.08955699
163	0xbe96420f	-0.29347274
164	0x3e47f592	0.19527271
165	0x3e1bd3f0	0.15217566
166	0x3d447e38	0.047971934
167	0x3d432d68	0.047650725
168	0x3e1378fe	0.14401624
169	0x3e14bf86	0.14526185
170	0xbcaf1a00	-0.021374702
171	0xbe810940	-0.2520237
172	0x3de6f804	0.11277774
173	0xbe804218	-0.25050426
174	0x3ca427b0	0.020038456
175	0xbe8b67db	-0.27227673
176	0xbe0a6b1f	-0.13517426
177	0x3e778c12	0.24174526
178	0xbaa67900	-0.0012700856
179	0x3e92b2e5	0.2865211
180	0xbe580954	-0.21097308
181	0x3d941f94	0.072325855
182	0xbd8bf292	-0.06833376
183	0x3b250400	0.0025179386
184	0xbe1f918d	-0.15582867
185	0xbdccfd40	-0.10009241
186	0x3ea1d3d3	0.31606922
187	0xbe047afc	-0.1293754
188	0xbe494384	-0.19654661
189	0xbd505610	-0.050863326
190	0x3e16ffd2	0.14746025
191	0x3e1e447a	0.15455809
192	0xbe477efe	-0.19482037
193	0x3e8d5749	0.27605656
194	0x3e4e6db2	0.20159033
195	0x3e987acb	0.29781184
196	0x3d839980	0.06425762
197	0xbd6f03b0	-0.058353126
198	0xbe8331d2	-0.25623947
199	0x3e7927fa	0.24331656
200	0x3d9734d0	0.0738312
201	0xbe83f834	-0.257753
202	0x3e6177ae	0.2201831
203	0x3db2a060	0.08721995
204	0x3e3a1406	0.18171701
205	0xbdc96ed4	-0.09835592
206	0x3ca164b0	0.019701332
207	0x3e56e28e	0.20984861
208	0x3e85a99f	0.26105973
209	0x3e40bb6a	0.18821493
210	0x3e0d954c	0.13826483
211	0xbea0f3e6	-0.3143608
212	0x3e2d5ae6	0.16929206
213	0x3e9775d5	0.29582086
214	0xbdc6fa52	-0.097157136
215	0x3e0d684e	0.1380932
216	0x3e80f5ad	0.25187436
217	0x3e6bb9e2	0.23020127
218	0xbe4ac70a	-0.1980249
219	0x3e8e0ae1	0.27742675
220	0xbd0ceec8	-0.034407407
221	0x3e713106	0.23553857
222	0x3e6dde12	0.23229244
223	0xbc518ce0	-0.012789935
224	0xbc9bbbb0	-0.019010395
225	0x3e6a4b1a	0.22880211
226	0x3e4533fa	0.19258109
227	0x3e9e3545	0.30900016
228	0x3e01e3be	0.12684533
229	0xbdabce16	-0.08388917
230	0x3e89d2bd	0.26918593
231	0xbdd5f6be	-0.10447453
232	0x3d72bfc0	0.0592649
233	0x3e34b4f0	0.17647147
234	0x3e9189ad	0.2842535
235	0x3e5d4a2a	0.21610323
236	0xbe95f227	-0.2928631
237	0xbe50b250	-0.20380521
238	0x3e6930b6	0.22772488
239	0xbe7043c3	-0.23463349
240	0x3e28d26e	0.16486523
241	0x3d2d56e8	0.04231921
242	0xbce62890	-0.028095514
243	0xbc082460	-0.008309454
244	0x3e27a6de	0.16372249
245	0xbd4ccf08	-0.050002128
246	0x3e018a52	0.12650421
247	0xbe3d2795	-0.1847213
248	0x3e65ffba	0.22460833
249	0xbd877598	-0.06614226
250	0x3e1d8278	0.15381801
251	0xbd846d50	-0.06466162
252	0x3e713d06	0.23558435
253	0x3d5e09c0	0.054208517
254	0xbe9cbcd7	-0.30612823
255	0xbd638188	-0.055543453

weight_hh_l0 f4 [40, 10]
0	0xbe994453	-0.2993494
1	0x3d5f7b60	0.05456102
2	0xbe84ff26	-0.25975913
3	0x3e952d5b	0.29136166
4	0xbe06dc28	-0.1316992
5	0x3cf7ea30	0.030263036
6	0xbe4a968f	-0.19783996
7	0x3cc48300	0.023988247
8	0xbdac3b6c	-0.08409771
9	0xbe98c8e5	-0.2984077
10	0xbe1e74dc	-0.15474266
11	0xbe916ab6	-0.28401726
12	0x3e579bb2	0.21055487
13	0x3e2b3e76	0.16723046
14	0xbea0f131	-0.31434014
15	0x3e1bf44e	0.15229914
16	0x3e5e8d2a	0.21733537
17	0x3dd57164	0.10422018
18	0xbdeff886	-0.11717324
19	0x3d06fdb0	0.03295678
20	0x3e6d167a	0.23153105
21	0x3dd39b60	0.1033237
22	0xbde7d95c	-0.11320755
23	0xbe4032f4	-0.18769437
24	0xbdd48c1c	-0.10378286
25	0xbe303346	-0.1720706
26	0x3e899e3b	0.26878533
27	0x3d5fba18	0.054620832
28	0x3ea1bf3b	0.3159121
29	0x3e2f7c84	0.17137343
30	0xbbd01c40	-0.006351024
31	0x3e83e5d3	0.2576128
32	0xbe266bb7	-0.16252027
33	0xbe8ad0fa	-0.2711256
34	0xbe36a28d	-0.17835446
35	0x3e8ba163	0.27271566
36	0xbe407800	-0.18795776
37	0x3e8859b1	0.2663093
38	0x3d125218	0.035722822
39	0xbde38d90	-0.11110985
40	0xbe313622	-0.17305806
41	0x3d9eb2a8	0.0774892
42	0x3dca5cfc	0.098810166
43	0xbe9da25e	-0.3078794
44	0x3e8a7aa7	0.270467
45	0xbe1ac48d	-0.1511404
46	0xbe7537de	-0.23947093
47	0x3e38b46c	0.18037575
48	0xbe8a258e	-0.26981777
49	0xbca01bd0	-0.019544512
50	0x3e999d7b	0.3000296
51	0x3d425828	0.047447354
52	0x3e9d03b9	0.30666903
53	0xbd15fa88	-0.03661588
54	0x3cb71380	0.022348166
55	0x3e85e813	0.2615362
56	0x3e212004	0.15734869
57	0x3e13de32	0.1444023
58	0xbd1d1fd8	-0.038360447
59	0x3e5bad9e	0.21452948
60	0x3e6c2fae	0.23065063
61	0xbdeccd70	-0.115626216
62	0xbe5383c5	-0.20655735
63	0xbe0060f8	-0.1253699
64	0xbe987a13	-0.29780635
65	0xbd4c0038	-0.049804896
66	0xbdcc9664	-0.09989622
67	0x3d20e490	0.039280474
68	0xbe23505d	-0.15948625
69	0x3e1b1eea	0.15148512
70	0x3e21b67a	0.15792266
71	0xbe5b7b5c	-0.21433777
72	0xbe1d1e4b	-0.15343587
73	0xbe85e205	-0.26149002
74	0xbd571810	-0.052513182
75	0xbe2b1982	-0.16708949
76	0xbe47d552	-0.19514969
77	0xbc4cf9a0	-0.012510687
78	0xbe4cc33d	-0.19996352
79	0x3d99d0bc	0.07510516
80	0x3e1e99cc	0.15488356
81	0xbe263500	-0.16231155
82	0x3b4cdb00	0.0031258464
83	0x3e85ac2d	0.26107922
84	0xbdb3a344	-0.08771375
85	0x3e84a1af	0.25904605
86	0xbe86affe	-0.26306146
87	0x3d950a30	0.07277334
88	0xbccb4290	-0.024812013
89	0x3e04ae8a	0.12957206
90	0x3e1dc998	0.15408933
91	0x3d81f528	0.06345588
92	0x3e870069	0.263675
93	0xbe5d9b08	-0.21641171
94	0x3e79eb5e	0.24406192
95	0x3d2c46a8	0.04205957
96	0xbc1a4040	-0.009414732
97	0x3e93df15	0.28881136
98	0xbe26ab33	-0.16276245
99	0xbe18d87b	-0.14926331
100	0x3e9cce2d	0.3062605
101	0x3e96d4ef	0.2945933
102	0x3e39ac6c	0.1813218
103	0xbe5e9b96	-0.21739039
104	0xbda993c0	-0.08280134
105	0x3e59194a	0.21201053
106	0x3e1c5528	0.1526686
107	0x3e926b7d	0.28597632
108	0xbdfa9028	-0.12234527
109	0x3e4d2ca2	0.20036557
110	0x3dd3b6d0	0.10337603
111	0xbe8ac6be	-0.27104753
112	0xbe90b433	-0.2826248
113	0xbe1d1da4	-0.15343338
114	0xbe0aee83	-0.13567548
115	0xbdd715c2	-0.10502197
116	0x3e727882	0.23678783
117	0x3d1be958	0.03806433
118	0xbdc48544	-0.09595731
119	0x3e930a03	0.28718576
120	0x3e095754	0.1341222
121	0xbdc5cb98	-0.09657973
122	0x3d8ab208	0.06772238
123	0xbe10dbf1	-0.14146401
124	0x3e802d29	0.25034454
125	0xbea0f347	-0.31435606
126	0xbd4e4080	-0.05035448
127	0xbd4c9a28	-0.049951702
128	0x3e96f001	0.29479983
129	0xbdd31cd8	-0.10308236
130	0x3e617586	0.22017488
131	0x3e7fda56	0.24985632
132	0x3e8a88f1	0.27057603
133	0x3e89c78b	0.26910052
134	0x3e37b886	0.17941484
135	0xbe98a32c	-0.2981199
136	0xbe41b69a	-0.18917313
137	0x3e264032	0.16235426
138	0xbd1b8e48	-0.037977487
139	0xbe701632	-0.23445967
140	0x3ba2e580	0.004971206
141	0xbe953981	-0.29145434
142	0xbe752aaa	-0.23942056
143	0x3dee02e8	0.11621648
144	0x3dd8c240	0.10583925
145	0xbdde3f9e	-0.10851978
146	0x3d6eedb0	0.058332145
147	0x3e1cf4ac	0.1532771
148	0x3e25b03a	0.16180506
149	0x3d4a9e50	0.049467385
150	0x3e97a82b	0.2962049
151	0x3d095900	0.033532143
152	0xbd051d38	-0.03249857
153	0x3e4daa2e	0.2008445
154	0xbe77bdcd	-0.24193497
155	0x3e32c766	0.17458877
156	0xbe58ba3e	-0.21164796
157	0xbe0ee704	-0.13955313
158	0xbe37a609	-0.17934431
159	0xbd515128	-0.051102787
160	0xbe0ace8e	-0.13555357
161	0xbd8797c0	-0.06620741
162	0xbe070188	-0.13184178
163	0x3dd8d0ec	0.10586724
164	0xbe33c0c8	-0.17554009
165	0xbe1237c0	-0.1427908
166	0x3dafcd04	0.085840255
167	0xbdbbfbdc	-0.09178898
168	0x3e67b22a	0.22626558
169	0x3e34c44a	0.17653003
170	0xbde8b084	-0.11361793
171	0x3e45a76a	0.19302145
172	0x3e2a5bdc	0.16636604
173	0xbcdbc870	-0.026828974
174	0x3e0e1374	0.13874608
175	0xbe248950	-0.16068006
176	0xbdbd0caa	-0.09230931
177	0x3e64a16a	0.223272
178	0xbe8962fb	-0.2683333
179	0xbcff9790	-0.0312002
180	0xbe8a859a	-0.27055055
181	0x3e62009a	0.22070542
182	0xbcdb80d0	-0.026794821
183	0xbd63fc90	-0.055660784
184	0xbe77a21f	-0.24182938
185	0xbc0aaee0	-0.008464545
186	0xbd3f75d8	-0.046743244
187	0xbd755a88	-0.05990079
188	0xbe8e15d2	-0.27751023
189	0x3e8cd4dd	0.27506152
190	0xbe93ea0d	-0.28889504
191	0xbe3d615f	-0.18494175
192	0xbe4b73d2	-0.198684
193	0xbddc2fae	-0.10751282
194	0x3d2ef798	0.042716593
195	0xbd92e6da	-0.07172938
196	0x3e940785	0.28911987
197	0xbe414d4c	-0.18877143
198	0xbd8b36c6	-0.067975566
199	0x3e75e4d2	0.2401307
200	0x3e7a3b4e	0.24436685
201	0x3d8148d0	0.06312716
202	0x3d8dc750	0.069227815
203	0xbe838f04	-0.2569505
204	0x3d442e30	0.04789561
205	0xbe557e65	-0.20848997
206	0xbe95e393	-0.29275188
207	0xbe632e44	-0.22185618
208	0xbe72fdc4	-0.23729616
209	0x3e8e25a9	0.27763107
210	0xbda20d86	-0.07912736
211	0x3e2dd184	0.16974455
212	0x3e752786	0.23940858
213	0xbdf9296e	-0.12166105
214	0xbd6d1be0	-0.05788791
215	0xbe9f026f	-0.31056544
216	0xbd922566	-0.071360394
217	0xbe8adc48	-0.27121186
218	0xbe389bab	-0.18028133
219	0x3b968c00	0.004594326
220	0xbe99c3cd	-0.30032197
221	0xbcd26230	-0.025681585
222	0xbe973f5a	-0.2954052
223	0xbe949174	-0.29017222
224	0x3e32122c	0.17389745
225	0x3dae6170	0.085146785
226	0x3da5d154	0.08096567
227	0xbe9926e0	-0.29912472
228	0xbe54e073	-0.20788746
229	0x3e953699	0.29143217
230	0x3d382ae0	0.044962764
231	0xbe68ebd9	-0.22746219
232	0x3e28315e	0.16425082
233	0xbe9a7be5	-0.3017265
234	0x3e8a75eb	0.2704309
235	0xbe0aa150	-0.13538098
236	0xbe5ad8d9	-0.21371783
237	0xbe68a508	-0.22719204
238	0xbcba8220	-0.022767127
239	0x3e2529c4	0.16129214
240	0x3e8c4cb3	0.27402267
241	0x3e5e669a	0.21718827
242	0xbe01346b	-0.12617652
243	0xbe4ad9f2	-0.19809702
244	0xbdedfad2	-0.11620106
245	0xbd9a2e34	-0.07528344
246	0x3c829620	0.015940726
247	0x3dd8c68c	0.10584745
248	0x3dd93f70	0.10607803
249	0xbde9a80a	-0.11409004
250	0x3e08bc0e	0.13352987
251	0x3e6a9612	0.2290881
252	0x3dd1578c	0.10221776
253	0x3c33d720	0.010976583
254	0xbd8886c6	-0.06666331
255	0xbe9f0bbe	-0.31063646

bias_ih_l0 f4 [40]
0	0x3e9c8d5b	0.30576596
1	0xbdd23902	-0.102647796
2	0xbcab8ed0	-0.020942122
3	0x3e9189b7	0.2842538
4	0x3e2a789c	0.16647571
5	0xbe031f1f	-0.1280484
6	0xbe1ce995	-0.1532348
7	0x3db0cdf8	0.086330354
8	0x3ddbc1bc	0.10730311
9	0x3db3f854	0.08787599
10	0xbe775fe6	-0.24157676
11	0xbdc570a4	-0.09640625
12	0x3e831fb9	0.2561014
13	0x3e208590	0.1567595
14	0x3e08b60e	0.13350698
15	0xbcc9c950	-0.024632126
16	0xbe4fc184	-0.20288664
17	0xbdf5ff42	-0.12011577
18	0x3e8768b7	0.2644708
19	0x3da451ac	0.0802339
20	0xbe876d9a	-0.26450807
21	0xbe0b191d	-0.13583799
22	0x3d1bb0b0	0.0380103
23	0x3e4c5e26	0.1995779
24	0x3e3125d4	0.17299587
25	0x3e7a0206	0.24414834
26	0xbe5862b0	-0.21131396
27	0xbe30034b	-0.17188756
28	0x3d254408	0.040348083
29	0x3d32a808	0.04361728
30	0x3e49fc4e	0.19725153
31	0xbd6c7b20	-0.05773461
32	0x3e19963e	0.14998719
33	0xbe2bacc0	-0.16765118
34	0x3b6efc00	0.0036466122
35	0x3e515f2a	0.20446458
36	0x3d2f4488	0.042789966
37	0xbd08dee8	-0.033415705
38	0xbe7a28ce	-0.24429628
39	0x3e4975c2	0.19673827

bias_hh_l0 f4 [40]
0	0xbe9a14d2	-0.3009401
1	0xbe58b1d7	-0.2116159
2	0xbe7508a1	-0.23929073
3	0x3d0f76b8	0.03502533
4	0x3dc900b4	0.09814587
5	0xbd6fc378	-0.058536023
6	0x3e357e98	0.17724073
7	0xbdadb4e0	-0.08481765
8	0x3d9f5da0	0.077815294
9	0xbe680c6c	-0.22660989
10	0x3daf6e00	0.08565903
11	0x3c87ecf0	0.016592473
12	0xbe472814	-0.19448882
13	0xbe73893e	-0.23782822
14	0x3d86e92c	0.06587443
15	0x3e18c4ca	0.14918819
16	0xbda5a884	-0.080887824
17	0x3e7e6436	0.24842915
18	0x3e8551f1	0.2603908
19	0xbe9fb01b	-0.31189045
20	0xbc63fe00	-0.013915539
21	0xbe86a33b	-0.2629641
22	0x3e2fb122	0.17157415
23	0x3e0a2d90	0.13493943
24	0x3ce546a0	0.027987778
25	0x3ca49d10	0.020094424
26	0xbdf5c03a	-0.11999555
27	0xbe91010f	-0.2832112
28	0xbe91ee50	-0.2850213
29	0x3e9e4a81	0.30916217
30	0xbdaecc90	-0.08535111
31	0xbe343974	-0.17600042
32	0x3e978477	0.2959325
33	0xbb956800	-0.004559517
34	0xbcebeab0	-0.028798431
35	0x3e7d2e3a	0.24724665
36	0x3e86a9b1	0.2630134
37	0x3e48045a	0.1953291
38	0xbe8817de	-0.2658071
39	0xbe6c8584	-0.23097807
