tests/_test_data/utils/step_100.pt (torch_old, 27779 bytes, 4 tensors)

weight_ih_l0 f4 [40, 10]
00000000: e957 49be 124f 3b3e 55c3 8b3e 5065 363e
00000010: bac0 343e 2088 33bc 0e2b 02be b1fc 1dbe
00000020: ce8f 233e 43f1 8fbe 2881 91be e82b 723d
00000030: 0099 3dbc a0b6 6a3c cb45 863e 2442 50be
00000040: f0d2 393d 803f 1cbb 3586 41be f8fb 113d
00000050: 380c a53d e87d 31be 7c91 a4bd 2204 1bbe
00000060: 4826 963d d1fc 65be 3a1b bdbd 6cb1 aabd
00000070: 90f3 7abd ca51 1b3e 006a 573a 402f 3dbc
00000080: 002a 903d b258 6f3e 70e6 8d3c b010 91be
00000090: 5044 e23c 4d62 2dbe 3061 47bd 727d 4ebe
000000a0: 2ca5 84be 69f2 833e 27b8 883e caa5 07be
000000b0: 1c56 88be 42d9 0cbe e006 383e 8ecd 89be
000000c0: d548 a03e 9067 96bc 57f7 9f3e add1 8dbe
000000d0: 0e25 6a3e 81c3 54be d272 483e ef82 6cbe
000000e0: 004c 02be 005d 17bd 53db 8e3e 0800 90bd
000000f0: 4a31 5c3e 20fa 193c 004a 9a3d 08d0 9cbe
00000100: 7517 85be 14a6 56be 2084 61bd 7d26 0abe
00000110: 4cab 73be a25d 3ebe 2e8b 553e 909e edbd
00000120: 613d 863e 2ce8 e83d e772 43be 40be 343e
00000130: 805e 94bc 0839 3b3d b823 7dbd d8b2 1f3d
00000140: 7181 92be 0001 35bc 823f f9bd 5dff 883e
00000150: a2d0 fbbd 3ccd de3d 30f8 fb3c d2bc f0bd
00000160: 97ff 853e 75e9 843e 785c dabd f862 b93d
00000170: 07bb 8d3e 36d5 123e f4d9 143e 91b9 843e
00000180: c0b0 223c 7024 a93d b7d4 3bbe ae10 743e
00000190: 800d 093b f527 3dbe f52b 9bbe d4a2 203e
000001a0: 2ace 92bd 8035 4d3c 089e 1fbe f682 793e
000001b0: 3a08 4dbe e0a9 15bd 40ca a63c 7a2c 3a3e
000001c0: 94a5 c13d 00cf 63bc 9a94 aabd 6475 dabd
000001d0: c04a d3bc b6df 88be 196b 903e f8dd 79bd
000001e0: 6311 30be 18c7 59be a045 c83c 5aa5 1f3e
000001f0: fcf9 833d e84d 803d 2a49 57be b004 cf3d
00000200: ccf1 e63d 4ee3 47be 4668 083e 806a f3bb
00000210: d0f9 01be 8c87 a43d 4cab 59be 681c 173e
00000220: 08cb 1c3d fd37 3abe 3497 0f3e a473 98be
00000230: d685 543e 0074 05bc 39fa 9cbe a4c8 2d3e
00000240: c219 79be e092 d23d 8070 a8bb 875d 913e
00000250: bcce a53d f08a 8d3d 7e1b fbbd 71ce 9a3e
00000260: eaff 633e 8f80 2ebe c0c6 023d c014 c83c
00000270: 7ace 613e 3c50 093e f0a6 1cbe 3e39 073e
00000280: 24e3 c83d 808d b23b 5d50 2ebe 7a6f 073e
00000290: 04ba 3b3e b5a5 7abe e794 983e 4053 f23d
000002a0: a53b 95be 852c 9d3e 00a4 173a 87ea 05be
000002b0: 2e99 533e 989a 723d 8f9d 883e 8a9f 9fbe
000002c0: 407c b03d a325 9cbe 95c2 9a3e 5281 92be
000002d0: 24e2 f13d a8cd e0bd 8220 5dbe 5a1c 713e
000002e0: 1a4c 89be e81e eb3d c025 25bd 22f8 703e
000002f0: 4908 30be fe87 65be e01b 17bd 6a2d 743e
00000300: 3408 a43d f141 993e fccb 67be 2684 7b3e
00000310: c0c3 a9bc 2f5c 8d3e 31e2 a13e 0830 ccbd
00000320: 8240 5b3e 00cb ee3a 8248 5fbe 2bf5 a03e
00000330: 5811 643d d8ec 03bd 0683 753e d872 53be
00000340: 8c00 7cbe f0b5 e53c 918f 59be 799d 963e
00000350: d0d4 713d 54d4 2c3e 08ec 58bd aa87 2a3e
00000360: 5586 913e 506b ce3c 39fe 00be 5206 4e3e
00000370: 60ee 91bd 1453 863d 1e09 4abe b879 68be
00000380: f6e0 233e 60bd 95bc 8af5 85be fc6a febd
00000390: 2086 233e cc92 dfbd d713 93be 68c6 933d
000003a0: 26b6 203e 24d7 843d e405 75be d025 1f3d
000003b0: e44e c33d ea57 733e 8a54 503e 9e91 72be
000003c0: 507f 22bd 006f 983d bc49 25be f2fb bdbd
000003d0: 4faf 8f3e 4845 bcbd a286 8ebd cd93 883e
000003e0: 57b1 823e f197 00be 6f85 96be 1190 84be
000003f0: 56c6 263e 086e 583d 5a1f 9dbe c05f 533d
-0.19662441 0.18291882 0.27297464 0.17812085 0.17651644 -0.010957748 -0.12711737 -0.15428425
0.15972826 -0.28113756 -0.2841885 0.059123904 -0.011572123 0.014325768 0.26225123 -0.2033773
0.04536718 -0.002384156 -0.18898852 0.035640687 0.08058971 -0.17333186 -0.080355614 -0.15138295
0.0733152 -0.22459723 -0.09233709 -0.08334622 -0.061267436 0.15167919 0.00082173944 -0.01154691
0.07039261 0.23373678 0.017321795 -0.28333044 0.027620465 -0.1693203 -0.04867667 -0.20165041
-0.25907266 0.25770882 0.26702997 -0.13246837 -0.26628196 -0.13754752 0.17971373 -0.26914638
0.31305566 -0.01835993 0.31243393 -0.27699032 0.22865698 -0.20777704 0.1957505 -0.23096822
-0.12724304 -0.036953926 0.27901706 -0.07031256 0.21503177 0.009398013 0.07533646 -0.30627465
-0.2599446 -0.20961791 -0.055057645 -0.13491245 -0.23795813 -0.18590406 0.20853874 -0.11602509
0.26218703 0.11372408 -0.190868 0.176507 -0.018111467 0.045708686 -0.061801642 0.038988918
-0.2861438 -0.011047602 -0.12170316 0.26757327 -0.12295653 0.10878989 0.030757993 -0.117547646
0.26171562 0.25959364 -0.10662168 0.0905208 0.27681753 0.14339146 0.14536268 0.25922826
0.009929836 0.08258903 -0.18342863 0.23834488 0.0020912588 -0.18472274 -0.30306974 0.15687114
-0.07168229 0.012524962 -0.15587628 0.24366364 -0.2002267 -0.03653896 0.020360112 0.18181029
0.0945541 -0.013904333 -0.08329125 -0.10666922 -0.02579248 -0.26733178 0.2820671 -0.0610027
-0.17194133 -0.21267354 0.024447262 0.1559042 0.06444165 0.062648594 -0.21024004 0.10108316
0.11276588 -0.19520304 0.13321027 -0.0074284673 -0.12692952 0.08033666 -0.21256751 0.1475693
0.038279563 -0.1818542 0.14022523 -0.29775727 0.2075418 -0.008145332 -0.30659655 0.1697107
-0.24326232 0.102819204 -0.005140364 0.28391668 0.08096072 0.06911266 -0.12261103 0.30235627
0.22265592 -0.17041229 0.031927824 0.024423957 0.22051421 0.13409513 -0.15298057 0.1320543
0.09808949 0.005448997 -0.17022844 0.13226119 0.18332678 -0.24477275 0.29801103 0.11832285
-0.29147068 0.30698028 0.0005784631 -0.13077746 0.20663902 0.059229463 0.26682708 -0.31176406
0.08617449 -0.30497465 0.3022658 -0.2861429 0.11810711 -0.10976726 -0.21594432 0.23545972
-0.26815873 0.11480504 -0.040319204 0.23532155 -0.1719066 -0.22415158 -0.036891818 0.23845449
0.08009377 0.29933122 -0.22636408 0.2456213 -0.020723224 0.27609393 0.31617883 -0.09970099
0.21411327 0.0018218458 -0.21805003 0.31437048 0.055680603 -0.032208294 0.23975763 -0.20649278
-0.24609584 0.028040856 -0.21246172 0.29417017 0.059040844 0.16877872 -0.052959472 0.16653314
0.284228 0.025197655 -0.12596978 0.20119599 -0.071255445 0.06558815 -0.1973004 -0.22702682
0.16003785 -0.018278778 -0.26163894 -0.124227494 0.15969133 -0.10916671 -0.28726074 0.07215577
0.15694484 0.06486347 -0.23928028 0.03885442 0.095365316 0.23764005 0.20344749 -0.23688361
-0.039672196 0.074430466 -0.16141409 -0.092765704 0.28063437 -0.09192902 -0.06959273 0.26675263
0.25525925 -0.12557961 -0.29398677 -0.25891164 0.16286597 0.05283931 -0.30687982 0.051604986

weight_hh_l0 f4 [40, 10]
00000000: baf0 623e 7298 753e 0a8f 90be 6c89 04be
00000010: 0b9f 2ebe 2250 4d3e 88ba 1abd 4ded 80be
00000020: 7bec 853e 36ba 003e 7010 e3bc aab8 5f3e
00000030: 6c35 84be 8d93 43be 4844 1c3e 9610 ebbd
00000040: d74c 57be 0ac7 143e 87a3 51be 20ad 7e3c
00000050: 2952 8dbe 9f61 96be 007d 733b 549c 3dbe
00000060: adb9 843e b100 24be 73cf 52be ce07 bebd
00000070: 2436 82bd 18d7 a73d 0c1e ce3d fc31 f73d
00000080: f0ed 253e 022a 5d3e 48ba dcbd 7672 9abe
00000090: 8033 80bd 4818 e43d daee 8cbe 2a52 753e
000000a0: 2056 4bbc 2d0d 50be 9014 87bc 9b65 8c3e
000000b0: 8d39 97be 3280 9bbd 3526 33be c08b 313c
000000c0: f05b 9a3d e064 1a3e b606 773e 8579 983e
000000d0: fda4 9fbe 4208 563e c88f 38bd 001f 73bd
000000e0: 90b4 b93d 2af9 293e b24e 8bbe 5f75 1bbe
000000f0: 5cbd 1fbe e0c6 1fbd 5052 123d d644 7cbe
00000100: f664 783e 2052 4ebc f6c6 adbd 7afe 95be
00000110: 68b7 593d 011b 22be 7a88 7d3e 5d7f 803e
00000120: c0c0 81bc bca7 4cbe fe71 0bbe c845 be3d
00000130: 4cc6 ef3d 587a 2e3e a6a4 283e 7c29 5ebe
00000140: a08d e63c 4043 f93d 66e4 5e3e e0e4 29bd
00000150: 1ac4 4bbe 9936 9e3e 5eef 3d3e 9a35 7e3e
00000160: cf10 17be 2005 5bbd 02fe 3f3e 803a 39bb
00000170: cdef 86be 08a4 d53d 34f3 efbd 5633 423e
00000180: 8a02 b6bd 9acb 6b3e b03c df3d 7885 1b3e
00000190: b537 3bbe 10d6 8cbe 7ebb 4a3e ebb5 12be
000001a0: 4823 603d 3bd8 8d3e 2699 703e 5d3b 4bbe
000001b0: a4f1 10be 60ab 90be e0ce a53c 0093 2ebb
000001c0: 977a 903e d04c 143d b737 893e 420f 4c3e
000001d0: fec1 063e 6478 c2bd 2069 6ebe 0c04 9d3d
000001e0: 952a 63be 48b0 8cbe b97e 35be a2cf 68be
000001f0: 0c6d a03d 67af 853e c697 5f3e 3958 30be
00000200: b215 89bd b92a 8fbe 06c2 3cbe 4032 10bd
00000210: 8085 48bd c23b 723e a00c 6fbd 5436 e13d
00000220: 4679 5f3e 5c4b 5ebe 303a 573d 30bd a0be
00000230: b904 8c3e e448 46be d155 823e 804f 94bb
00000240: 8bd5 94be c0fb 5bbc 3e48 f5bd 702e f23c
00000250: 48ce 3dbd 50cf c83c a8e2 793d b4fd 90be
00000260: ae47 90be 18c4 3a3d 6200 24be 4601 a9bd
00000270: 626a 06be e051 063e a040 4b3d 0ae5 433e
00000280: 362c 59be 7ed3 593e 6279 51be 3d95 913e
00000290: 0827 00be e0f5 233d ac59 06be 0b00 873e
000002a0: b4fc c33d 5862 293d 385a 35bd fe50 663e
000002b0: f090 9dbe 9606 65be ed0a 4fbe c533 99be
000002c0: c67f 293e 8ef5 043e 25f2 983e 661e 733e
000002d0: 4be3 9f3e d0ef 993d 061d 163e 00a6 e0ba
000002e0: 9baa 8a3e 70fb 0ebd 20f0 46be 7527 913e
000002f0: a0d7 343c 4c4f e73d 1291 09be 16ce 733e
00000300: 09ef 9f3e 72d7 48be 4a50 153e 22d8 afbd
00000310: 409b 883c 2fcc 0fbe 402f 013c 497d 893e
00000320: 7c2b 333e c8d3 c3bd 2013 7abe 1077 b43d
00000330: 6600 733e 3023 cc3d f3f2 943e 23b4 833e
00000340: 513b 923e 8caf df3d 4818 aa3d fef7 68be
00000350: f0d0 9fbc 505c dabc 6082 f13c 52aa 113e
00000360: b226 5a3e 5855 9bbe a42f 64be e2c6 523e
00000370: 7028 f23d 0733 81be 00b3 183b 3898 263d
00000380: 07f4 12be 00e5 07bc b8cc 343d 10f9 3dbd
00000390: 2442 b6bd d048 99bc aa6f 643e a85d 253e
000003a0: 018f 8d3e a067 9dbe af29 a1be a0fc 453c
000003b0: 3acf eebd 6633 23be 50f7 67be 9a6f 533e
000003c0: 90c9 6ebe 034e 3ebe 7e28 223e 70ae 9abc
000003d0: fcb9 f23d b835 433d 4032 053d b844 49be
000003e0: 18d5 3f3d f570 1bbe 64f7 f53d 40c0 cbbb
000003f0: e61e 6b3e d42b 98be 1ab9 4f3e 4e6f d7bd
0.22162142 0.23983935 -0.2823413 -0.12943047 -0.17052858 0.200501 -0.037775546 -0.25181046
0.26156983 0.12571034 -0.027717799 0.21847787 -0.25822008 -0.19099255 0.15260422 -0.11477773
-0.21025406 0.14529052 -0.20472537 0.015544206 -0.27601746 -0.29371354 0.0037153363 -0.18516666
0.2592291 -0.16015889 -0.20586948 -0.092788324 -0.06357983 0.08195323 0.10064325 0.12070081
0.16204047 0.21598056 -0.10777718 -0.30165452 -0.06259823 0.11137444 -0.2752598 0.23957124
-0.0124106705 -0.20317526 -0.016489297 0.2742127 -0.29536095 -0.07592811 -0.17495044 0.010836542
0.07537067 0.15077543 0.24123654 0.29780212 -0.31180564 0.20901588 -0.045058995 -0.059355736
0.09067643 0.16598955 -0.27208477 -0.15181492 -0.15599579 -0.03900802 0.03572303 -0.24635634
0.24257264 -0.012592822 -0.084852144 -0.29295713 0.053153425 -0.15830614 0.24759093 0.2509717
-0.01583898 -0.1998586 -0.13617703 0.092906535 0.11707744 0.17038858 0.16469058 -0.21695513
0.028143704 0.1217103 0.21766815 -0.041478038 -0.19899026 0.3090103 0.18548343 0.24825135
-0.14752506 -0.053471684 0.1874924 -0.0028263628 -0.26354828 0.10431677 -0.11716309 0.18964896
-0.08887203 0.23026887 0.10900247 0.15187633 -0.1828297 -0.27507067 0.19798085 -0.14327209
0.054721147 0.27704033 0.23495921 -0.19846864 -0.14154679 -0.2825575 0.020240247 -0.0026637912
0.2821853 0.036206067 0.2680032 0.19927695 0.1315994 -0.09495619 -0.2328229 0.076667875
-0.22184213 -0.27478242 -0.17724122 -0.22735456 0.07833299 0.26110384 0.2183524 -0.17221154
-0.06693591 -0.27962282 -0.18433389 -0.035204172 -0.04895544 0.23655608 -0.05836165 0.109966904
0.21823606 -0.21708435 0.052545726 -0.3139434 0.27347353 -0.19363743 0.25456098 -0.0045260787
-0.2906917 -0.013426721 -0.1197667 0.029563159 -0.046339303 0.024512917 0.061007172 -0.2831856
-0.28179687 0.045597166 -0.16015771 -0.08252196 -0.1312652 0.1311717 0.049622178 0.1913034
-0.21208271 0.21272084 -0.2045646 0.28434172 -0.12514889 0.040029407 -0.13120145 0.2636722
0.09569684 0.041353554 -0.044275492 0.22491834 -0.3077464 -0.22365794 -0.20219012 -0.2992231
0.16552648 0.12984297 0.29872242 0.23742065 0.31228098 0.07516444 0.14659509 -0.0017139316
0.27083287 -0.03490776 -0.19427538 0.28350416 0.011037737 0.112944216 -0.13434246 0.23809084
0.31237057 -0.19613436 0.14581409 -0.08586146 0.016675591 -0.14042734 0.0078848 0.26853397
0.17497057 -0.095618784 -0.24421358 0.08811772 0.2373062 0.09967649 0.29091606 0.2572337
0.2856088 0.10922155 0.083054125 -0.22750852 -0.019508809 -0.026655346 0.029481113 0.14225128
0.21303824 -0.3033855 -0.22283798 0.2058368 0.11824119 -0.25234243 0.0023300052 0.04067251
-0.14350902 -0.008294344 0.044140548 -0.046380103 -0.08899334 -0.018711478 0.22308221 0.16149008
0.27648166 -0.30743122 -0.31477115 0.012084156 -0.11660619 -0.15937576 -0.22652936 0.20648041
-0.23319077 -0.18584447 0.15835759 -0.018882006 0.1185188 0.047658652 0.032518625 -0.1965512
0.04683408 -0.15179808 0.12010077 -0.0062179863 0.22961006 -0.29720938 0.20285454 -0.105192766

bias_ih_l0 f4 [40]
00000000: 8891 b93d 4036 2cbd 5844 54bd e688 b0bd
00000010: 58f5 f03d 3262 c9bd e0e5 043e 801d 78bb
00000020: 94d6 07be 3d84 9d3e b01c 26bd 50b5 06bd
00000030: 20ea 57be 836a 9f3e 1411 a13d c2f5 363e
00000040: 312f 77be 805a 6fbc e269 323e d1ac a03e
00000050: c06b 5bbd 2eaf 653e e62b b2bd 40d7 c4bb
00000060: 164b 43be d2c1 663e 20fd 333e 00dc 463d
00000070: b4c0 dc3d 7826 1bbd 766e 4a3e ad78 92be
00000080: b89c 223e d0e5 c13c d0ad ea3c e8b2 73bd
00000090: 7e70 7cbe 28c4 003e a04e 5abe cef1 563e
0.09060961 -0.042043924 -0.05182299 -0.08619861 0.117655456 -0.098331824 0.12978315 -0.003785938
-0.13265449 0.30764952 -0.040554702 -0.032887757 -0.21085405 0.3113595 0.078645855 0.17867187
-0.24139096 -0.014608979 0.17423204 0.31381848 -0.053569555 0.22430107 -0.08699779 -0.006007105
-0.19071612 0.22534874 0.17577028 0.048549652 0.10778943 -0.037878484 0.197687 -0.28607693
0.15880096 0.023669153 0.028647333 -0.05949679 -0.24652287 0.12574828 -0.21319056 0.20990679

bias_hh_l0 f4 [40]
00000000: 00e7 59bb a7b8 3dbe b815 43bd 32f2 79be
00000010: 0071 e83b aa57 6d3e fef9 2dbe 80a0 2fbd
00000020: e469 03be f81a f13d deed 633e 36c7 61be
00000030: c0dc a93d a02c 233d 800d 12bd bed1 bebd
00000040: e05c 81bc 4372 10be 88c6 5b3d acf8 e7bd
00000050: 8576 23be c27a 1e3e 7eb4 663e f47a 383e
00000060: 48d6 3f3d 1c3b a73d 381b 85bd 70dc f83c
00000070: d643 643e 84ba de3d c5a7 863e 005f 4d3d
00000080: 4649 99bd d479 f5bd 04b8 82bd 28d7 67be
00000090: ceec 3e3e 6ac5 21be daba b7bd 6087 8fbd
-0.003324926 -0.1852747 -0.047628134 -0.24408796 0.007093549 0.23177972 -0.16989896 -0.042877674
-0.12833363 0.11772722 0.22258708 -0.22048649 0.08294058 0.03983748 -0.035657406 -0.09317349
-0.015791357 -0.14106087 0.05365613 -0.11326727 -0.1596318 0.15476516 0.2252979 0.18015653
0.046835214 0.08165571 -0.06499332 0.03037855 0.22291502 0.10875419 0.26299873 0.050139427
-0.07484679 -0.119861275 -0.063827544 -0.2264067 0.18645021 -0.15797964 -0.08971186 -0.070082426
