tests/_test_data/utils/step_100.pt (torch_old, 28022 bytes, 4 tensors)

weight_ih_l0 f4 [40, 10]
000000 74 8e 10 3e a8 33 7b 3d 2c 98 5f be d6 50 3d 3e
       0.14116842 0.06132856 -0.21835393 0.18487868
000010 50 c5 98 bd 1c cd 15 be 0a 15 1e 3e 5c f3 d2 bd
       -0.074595094 -0.14629024 0.15437713 -0.10300323
000020 80 9e f9 3c 12 1c b8 bd 3b 76 95 3e 4e 90 25 3e
       0.030471087 -0.08989729 0.29191765 0.16168329
000030 8b 97 92 3e c6 81 92 be 80 61 b5 bb 86 68 07 be
       0.28631243 -0.28614634 -0.0055353045 -0.13223466
000040 c0 93 fa bd 87 ca 8e 3e 4c 8b 93 be a6 a8 8b be
       -0.12235212 0.2788889 -0.28817213 -0.27277106
000050 be 84 cc bd f8 d0 ff bd c0 be 44 bd b2 b0 f8 bd
       -0.09986256 -0.124910295 -0.048033476 -0.12143077
000060 42 74 5e 3e 60 12 85 3c 6a 43 47 3e 8a 9b 4c 3e
       0.21724036 0.016244113 0.1945931 0.19981208
000070 36 36 63 be 10 48 94 3c d6 48 2b 3e b8 64 20 3e
       -0.22188649 0.018100768 0.16727003 0.15663421
000080 7a e0 4e 3e ba cc 46 be de 7c a7 bd 37 2d 9b be
       0.20202819 -0.19414034 -0.081781134 -0.30307934
000090 43 35 71 be 7a 7d 6b 3e 6a 34 46 be e0 95 8b 3c
       -0.23555474 0.22997084 -0.19355932 0.01703924
0000a0 42 18 7c 3e 46 98 69 be 20 36 4e 3c 96 bd 76 be
       0.24618629 -0.22811994 0.012586147 -0.24095759
0000b0 c0 84 e6 3c 7e b9 a5 bd 68 4f 46 bd aa 4a 6e 3e
       0.028139472 -0.080920205 -0.04841557 0.2327067
0000c0 f6 dc 64 3e 03 06 65 be 9a 28 48 3e de 90 00 be
       0.22349915 -0.22365575 0.19546738 -0.12555262
0000d0 00 3d 56 3d 7e 48 62 3e c2 be 77 3e 00 77 97 bb
       0.052304268 0.22097966 0.24193862 -0.00462234
0000e0 a2 27 38 3e de cb 6c 3e 79 ef 46 be e1 aa a1 3e
       0.17983869 0.23124644 -0.19427289 0.31575683
0000f0 a4 0c 5e be f2 a1 58 3e 1a 03 1c 3e 1f d0 06 be
       -0.2168451 0.21155527 0.15235558 -0.1316533
000100 40 ec 19 3c cf fa 21 be 30 15 77 3d f0 d5 26 3e
       0.009394705 -0.15818332 0.06032294 0.16292548
000110 df 87 2e be f7 68 3f be 9f 2d 32 be 30 cb cc bc
       -0.17044018 -0.18692385 -0.17400216 -0.024999231
000120 b8 2e 06 bd 64 76 2d be 3e 11 8b be b9 c6 84 3e
       -0.0327594 -0.16939694 -0.27161592 0.25932863
000130 08 f1 74 3d 28 09 df 3d 34 9f 09 3e bc 63 e8 bd
       0.059800178 0.10890418 0.13439637 -0.11347148
000140 18 9c 29 3d ad a0 95 3e a0 c3 97 be c2 58 9e be
       0.04140863 0.29224148 -0.29641438 -0.30927092
000150 e2 4f 63 3e ac 69 68 be 34 57 90 be 31 81 26 be
       0.22198442 -0.2269656 -0.2819153 -0.1626022
000160 da 63 26 be a4 8f 79 be a2 40 48 3e 4a dc d1 bd
       -0.16249028 -0.24371201 0.19555905 -0.10247095
000170 bd e2 95 3e 46 71 5c be 70 02 17 bd f4 dd 9a be
       0.2927455 -0.21527585 -0.03686756 -0.30247462
000180 08 b8 0d 3e e0 04 6a 3c 68 71 11 be f0 76 9a bc
       0.13839734 0.014283389 -0.14203417 -0.018855542
000190 00 ee 54 3a 12 a5 3e 3e d4 ce 76 be b4 1d 1f 3e
       0.0008122623 0.18617657 -0.24102336 0.15538675
0001a0 90 29 63 be 77 4c 9d 3e 79 a0 91 3e 00 07 cf bd
       -0.22183824 0.307224 0.28442743 -0.10108757
0001b0 ac 6b 1c 3e 71 ce 98 be 5e a6 6b be cc eb 06 3e
       0.15275449 -0.29845002 -0.23012683 0.13175887
0001c0 1e 5e 63 3e ed 45 94 3e 92 1b 54 3e 60 38 d6 bd
       0.22203872 0.289596 0.20713642 -0.104599714
0001d0 b9 59 96 be c0 62 7c 3c 60 8a 7a be bf 15 35 be
       -0.29365328 0.015404403 -0.24466848 -0.17684077
0001e0 70 f1 39 be 8c 14 24 3e 12 39 0c 3e 2a bc 3e be
       -0.18158507 0.16023463 0.13693646 -0.18626466
0001f0 3e fe 20 3e 7e 34 92 be 30 36 74 be 5e 8c 4b 3e
       0.15721986 -0.28555673 -0.23848796 0.19877765
000200 38 84 4d be ed f9 93 3e 86 09 6e be c0 31 3a bc
       -0.20069969 0.28901616 -0.2324582 -0.0113644
000210 20 c7 66 bc d6 60 07 3e 00 ed 33 3b c2 3d 3d be
       -0.014085561 0.13220534 0.0027454495 -0.1848059
000220 c8 27 96 3d 00 14 95 bc bb 4d 8d 3e 78 23 02 bd
       0.073318064 -0.018198013 0.27598366 -0.031772107
000230 ac b4 ff bd cb 00 96 3e 32 9b cc bd 40 e4 dd bd
       -0.12485632 0.2929748 -0.09990539 -0.10834551
000240 48 80 b3 3d 50 ad 3b 3d d0 92 87 bc 3e 47 ad bd
       0.08764702 0.04581958 -0.016549498 -0.08460854
000250 e6 c0 0f 3e 18 3f 06 bd 40 94 8a 3d 1b b1 59 be
       0.14038429 -0.032775015 0.06766558 -0.21258967
000260 1f a3 8f be 9d 95 7e be c4 03 d7 3d 90 39 1f be
       -0.2805414 -0.2486176 0.10498765 -0.15549302
000270 e0 f4 15 3e 0b 1e 29 be 8c 1e 98 be 1a bb 68 be
       0.14644194 -0.16515367 -0.29710805 -0.22727624
000280 d6 a5 7a be 9a ec 7a be e8 f9 a0 3d 0c 82 02 3e
       -0.24477324 -0.24504319 0.07860166 0.12744921
000290 27 25 10 be f3 f8 83 3e 00 b9 c4 ba 73 42 94 3e
       -0.14076672 0.2577587 -0.0015008748 0.28956947
0002a0 ba 6a bb bd 40 a8 91 3c 16 ba 74 3e 06 df 1b be
       -0.09151216 0.017780423 0.23899111 -0.15221795
0002b0 d4 0b dd bd 72 3a 59 3e b9 14 8b 3e 98 38 a0 3d
       -0.10793272 0.21213701 0.27164248 0.078232944
0002c0 0b 97 94 3e 98 ec 71 be e6 0a 72 3e ef 12 9d 3e
       0.29021487 -0.2362541 0.2363697 0.30678508
0002d0 60 76 6f bd 3e f6 87 be 94 9a e5 3d b1 17 62 be
       -0.0584625 -0.26555055 0.11211124 -0.2207935
0002e0 a0 51 45 bd d6 4f 51 be 7b ec 97 3e 1d fe 9e 3e
       -0.048173547 -0.20440611 0.29672608 0.31053248
0002f0 17 ae 74 be c0 b0 61 3d f8 cd 9c 3d 28 91 07 3d
       -0.23894535 0.055100203 0.07656473 0.033097416
000300 87 fd 1b be ca f7 5a be da ad 05 be 42 1b 71 3e
       -0.15233432 -0.21383587 -0.130546 0.23545554
000310 76 e6 3f 3e 17 85 05 be 0d 52 90 be e8 45 06 bd
       0.18740258 -0.13039051 -0.281876 -0.03278151
000320 7e e6 41 3e 5a 29 ae bd 90 a8 c4 bc 3b 27 7b be
       0.18935582 -0.08503981 -0.024006158 -0.24526684
000330 98 ba de bd 98 d9 d0 bd 80 7c 6d 3c 28 0e 35 3e
       -0.10875434 -0.10197753 0.014495015 0.17681181
000340 81 f6 8d be 1d 52 85 be ae d4 8b be 90 45 02 3d
       -0.2772713 -0.2603921 -0.273107 0.03180462
000350 d1 f7 23 be 80 28 c2 bd c4 0f 13 3e 3e 9b 70 3e
       -0.16012503 -0.09480381 0.14361483 0.2349672
000360 ba 3c 3c 3e a0 a7 b2 bc 71 fe 1f be 44 dd 10 be
       0.1838254 -0.021808445 -0.15624405 -0.14146906
000370 f2 95 79 3e c6 0e 45 3e ea 6d ef bd 80 98 1b 3b
       0.24373606 0.19243917 -0.11690886 0.002374202
000380 11 c1 94 3e 34 c8 c4 3d a4 65 81 be 61 55 80 3e
       0.29053548 0.09608498 -0.25272858 0.2506514
000390 b9 b5 a1 3e 87 16 4f be ba 81 6d 3e 3e 75 8c be
       0.31583956 -0.20223437 0.23194018 -0.274332
0003a0 60 98 79 bd 9e 8a 3c 3e 22 f8 0d 3e 5f 8d 69 be
       -0.06093633 0.18412253 0.13864186 -0.22807835
0003b0 a8 bb 65 3d 1d f0 9b be b4 a0 8d be 50 9b 6a be
       0.056087166 -0.3045663 -0.2766167 -0.2291081
0003c0 d8 25 69 3d b8 94 03 3e 48 32 8e bd d6 e8 59 3e
       0.056920856 0.128497 -0.06943184 0.21280226
0003d0 d9 be 3a be 88 d6 16 be 74 d9 76 be 7e f2 92 bd
       -0.18236865 -0.14730275 -0.2410639 -0.07175158
0003e0 8a 74 f9 bd 4e 03 46 3e f0 e0 b2 3c 68 30 2b be
       -0.12180431 0.19337198 0.021835774 -0.16717684
0003f0 7c 26 e3 3d e1 ae 93 3e 33 6e 8c be 9d 15 97 3e
       0.11091325 0.2884436 -0.27427825 0.29508677

weight_hh_l0 f4 [40, 10]
000000 78 d8 9d be 9e ae 09 3e 54 df 98 3d 77 de 92 be
       -0.30829215 0.13445517 0.074644715 -0.28685352
000010 ae 8f 50 be 35 36 3a be 46 34 05 3e be ec 0b 3e
       -0.2036731 -0.18184741 0.13008222 0.13664529
000020 aa 96 51 3e 87 41 8a 3e 6d 29 9a 3e fa a1 69 3e
       0.2046763 0.27003118 0.3010973 0.22815695
000030 a8 ff 0a 3e 16 4b 4d be 80 c9 15 3d 44 62 91 3d
       0.13574088 -0.20048174 0.03656912 0.07098821
000040 f2 98 93 bd cd 9c 09 be 63 97 90 3e ba 6b f7 bd
       -0.072069064 -0.13438721 0.282405 -0.12081094
000050 a9 e2 94 be 1e b7 4c 3e 88 74 19 3e f5 ef 95 be
       -0.29079178 0.19991729 0.1498586 -0.29284635
000060 38 38 88 be c0 21 d2 3b 42 da 6a 3e d0 a6 2c bd
       -0.26605392 0.0064127147 0.22934821 -0.042151272
000070 76 e2 6f be 58 5a 13 3d 70 aa 0d bd bb 13 57 be
       -0.23426232 0.03597483 -0.03458637 -0.2100362
000080 56 10 09 be 31 77 82 be 00 30 a7 bc fc dd b0 3d
       -0.13385138 -0.2548156 -0.02040863 0.0863609
000090 8a c6 53 3e 63 73 8c 3e 20 47 f2 3c e7 62 43 be
       0.20681205 0.27431783 0.02957493 -0.19080697
0000a0 08 b0 9e be 40 64 f3 3d f6 5b 2e 3e d2 74 42 3e
       -0.30993676 0.118843555 0.17027268 0.18989876
0000b0 83 da 96 be 00 9f e5 3b a8 49 fe 3d 80 81 5d bc
       -0.29463586 0.0070074797 0.124163926 -0.013519645
0000c0 98 54 67 be c0 26 1b be 06 87 75 be 00 29 df bd
       -0.22590864 -0.151515 -0.23977289 -0.10896492
0000d0 82 7d ab bd ba 45 9a bd 0d c3 9c 3e f2 6f 81 be
       -0.08373548 -0.075328305 0.30617562 -0.2528072
0000e0 68 0c 2f 3e 6f 56 86 3e e0 db 3e 3d a0 86 68 be
       0.17094576 0.2623782 0.046596408 -0.22707605
0000f0 6c f1 78 be 50 a7 b2 3c d0 2c 6b be 90 95 d2 3c
       -0.24310845 0.021808296 -0.22966313 0.025706083
000100 a2 8b 1e 3e dc 02 ae 3d 5b c9 2f be 2d b8 9c 3e
       0.15482953 0.08496639 -0.17166655 0.30609265
000110 e0 69 3c be 10 94 a9 3d 60 d3 53 3d d8 8c 97 3d
       -0.18399763 0.08280194 0.051715255 0.07399911
000120 5e 34 a1 be ab 70 19 be c7 c5 8f 3e e4 ba a2 3d
       -0.31485265 -0.14984386 0.2808058 0.07945803
000130 b6 06 6d 3e 50 3d 6a 3d bf 0b 3f be ae ee 4f 3e
       0.23147091 0.05718738 -0.18656825 0.20305893
000140 9c fe ea 3d b0 be 13 3e 2c 27 2e be 0e 9c 18 be
       0.11474344 0.1442821 -0.1700713 -0.1490328
000150 51 3c 9c be 59 44 96 3e 98 93 42 be 16 0e 35 be
       -0.30514768 0.2934902 -0.19001615 -0.17681155
000160 5a ee f0 bd 1c a1 2e be a5 97 8b be 4f 96 94 3e
       -0.11764212 -0.17053646 -0.27264133 0.29020926
000170 22 e5 92 bd 16 1d 89 be 20 d7 3b bd 00 93 95 3a
       -0.0717261 -0.26780003 -0.045859456 0.0011411607
000180 64 c0 b0 3d 92 41 6a be d0 3b c0 bc 00 e2 f9 ba
       0.086304456 -0.22876576 -0.02346602 -0.0019064546
000190 51 4c 9d 3e 3a d8 17 3e 9b e0 9d 3e 29 de 92 3e
       0.30722287 0.14828578 0.30835423 0.2868512
0001a0 9e 40 04 3e 58 b0 66 be 5c f8 82 3d 1e fd 46 3e
       0.12915275 -0.22528207 0.06395027 0.19432494
0001b0 64 ff 94 bd d8 80 90 3d 10 a4 9d be 00 93 a3 3b
       -0.072752744 0.07055825 -0.30789232 0.004991889
0001c0 a7 8e 9b 3e f6 5a 63 3e 4e a7 88 be 5c be ea bd
       0.30382273 0.22202668 -0.26690143 -0.114620894
0001d0 b0 72 a7 bd 5c f7 2e be e0 c7 5e be cc 8d 11 3e
       -0.08176172 -0.17086548 -0.21755934 0.14214247
0001e0 ce f6 8c be 03 8f 0d be 00 eb 3c 3b a8 01 17 3d
       -0.27532047 -0.13824086 0.0028826594 0.036866814
0001f0 f6 71 5e be 16 b0 54 3e c1 bd a0 3e 54 8f 14 3e
       -0.2172316 0.20770296 0.3139477 0.145078
000200 ee 0f 4e be ea 5e e9 bd d2 00 57 3e 9e 2f 40 3e
       -0.20123264 -0.113950565 0.20996407 0.18768165
000210 d0 e7 84 3d 88 bd df 3d 90 0c 32 3e 78 4b 3e be
       0.06489527 0.10924822 0.17387605 -0.18583477
000220 dc 9a de 3d 77 62 92 3e cf 82 21 be 8d 31 80 3e
       0.10869381 0.28590748 -0.15772556 0.25037804
000230 f5 f2 82 3e c4 e0 2d 3e 97 53 8c 3e f8 23 63 3d
       0.25575987 0.16980273 0.27407524 0.055454224
000240 fa 27 cd bd a0 c7 c3 bc c6 13 9d be 29 66 81 3e
       -0.100173905 -0.0238989 -0.30679148 0.25273255
000250 0e ea 4e 3e 8a da df bd ba 0a 0f 3e 6c 20 2e 3e
       0.20206472 -0.10930355 0.13968936 0.17004555
000260 54 cf ea 3d ac 78 4e be 00 25 33 bb 8a a5 87 be
       0.11465326 -0.2016322 -0.0027335286 -0.26493484
000270 c0 6d b4 bc 80 bb 88 3c cb 6d 86 3e 65 cc 3b be
       -0.02202499 0.01669097 0.2625564 -0.18339689
000280 89 d4 82 3e 90 53 29 be 50 9e c9 3d 5f 70 84 be
       0.25552776 -0.16535783 0.09844649 -0.25866982
000290 00 95 22 3c 25 86 5f be 38 eb 35 bd 50 d8 f7 3d
       0.00992322 -0.21828516 -0.044413775 0.12101805
0002a0 f3 cd 5f be d8 c8 2e bd f7 ed 3d be 10 01 ee bd
       -0.21855907 -0.04267201 -0.18547808 -0.116212964
0002b0 80 c7 9d be c0 a6 17 3c d6 63 15 be d2 cc 6c 3e
       -0.3081627 0.009256065 -0.14588866 0.23125008
0002c0 4d 4d 2e be aa 79 fd bd 3e 44 46 3e fb 8c 03 be
       -0.17021675 -0.12376721 0.1936197 -0.12846749
0002d0 02 08 00 3e 60 ea 10 3c 4a 03 6a 3e 8c 67 23 be
       0.12503055 0.008844942 0.22852817 -0.15957469
0002e0 8e ce 3e 3e d4 94 bf bd ce e8 3c 3e 25 7a 94 3e
       0.18633482 -0.093545586 0.18448183 0.2899944
0002f0 53 c2 a1 3e de 60 33 3e 90 2c f4 bc c0 2b eb 3b
       0.3159357 0.1751742 -0.029806405 0.0071768463
000300 40 6b 77 3d b4 29 af 3d 78 e1 35 3e 3c 28 e1 bd
       0.060405016 0.08552876 0.17761791 -0.10994002
000310 20 17 9f 3c 92 79 6a 3e 57 65 a1 be ba 23 1e be
       0.019420207 0.22897938 -0.3152263 -0.15443316
000320 80 e1 46 3c 87 33 11 be 70 82 20 3e 38 3e 8e bd
       0.012138724 -0.14179812 0.15674758 -0.06945461
000330 a4 0d 67 be 14 d6 2e be dc 5a 25 3e d9 96 9e 3e
       -0.22563797 -0.17073852 0.16147941 0.30974463
000340 91 b3 83 3e 68 16 09 bd 50 66 16 3d 35 df 98 be
       0.25722936 -0.033468634 0.036718667 -0.29857793
000350 80 f4 97 bd ab ea 8b 3e 09 b0 9e 3e 2a 13 33 3e
       -0.074196815 0.27327475 0.3099368 0.1748778
000360 d5 b3 81 be 34 4f 88 3d d4 00 2d 3e 34 1d 19 3e
       -0.25332513 0.06655732 0.16894847 0.14952546
000370 90 a2 ce 3c 94 0e 25 3e c4 17 41 be 42 d0 99 be
       0.025224 0.16118842 -0.18856722 -0.300417
000380 54 a1 c3 bd 20 56 f2 3c 4e 50 4b 3e e0 fc 4e be
       -0.09552255 0.029582083 0.19854853 -0.20213652
000390 3a 3c 7b 3e e0 5f 5a bd 22 ee d0 bd df 6c 89 3e
       0.24534693 -0.05331409 -0.1020167 0.26840875
0003a0 fe 39 4f 3e b8 e3 7d 3d b0 89 2d 3d 08 12 c1 3d
       0.20236966 0.061984748 0.042367637 0.09427267
0003b0 50 27 4f 3d 1f ea 8b be 9e 03 90 be 01 2d 88 3e
       0.0505746 -0.27327058 -0.2812776 0.26596835
0003c0 c6 00 24 3e 30 9d 15 3e 0e de 62 be 6a eb 56 be
       0.1601592 0.14610744 -0.2215502 -0.20988241
0003d0 50 00 e4 bd 60 2a f4 bc bc 45 99 3d 52 db 49 be
       -0.11132872 -0.029805362 0.07484004 -0.1971257
0003e0 48 f2 55 be dc 76 9a be c4 30 f9 bd 18 6d 5c be
       -0.20893204 -0.30168808 -0.121675044 -0.21525991
0003f0 b8 8c c4 bd 7c d5 f3 bd 46 8a 76 3e 70 d1 8b 3d
       -0.095971525 -0.11905953 0.24076185 0.068270564

bias_ih_l0 f4 [40]
000000 dc f9 9b bd 4e 66 66 3e fa b3 5b 3e 40 12 c0 3b
       -0.07616016 0.22499964 0.21455374 0.0058615506
000010 8a 76 76 3e dc ec 5f be 60 9c 51 3c 52 08 69 be
       0.24068657 -0.21867698 0.01279363 -0.2275708
000020 50 a4 2e 3e 6a 2a 2f 3e 9a 81 37 be c6 b2 43 3e
       0.17054868 0.17106023 -0.17920533 0.19111165
000030 03 9f 8b be 55 eb 84 3e 24 77 f2 3d 5c 15 80 be
       -0.27269754 0.25960794 0.118391305 -0.25016296
000040 0c ca 22 be 74 d9 d5 3d 92 2e 0d be 04 7b f1 3d
       -0.15897387 0.104418665 -0.13787296 0.117910415
000050 e8 8f 46 bd b0 fb 82 3c f3 ea 06 be 72 43 79 3e
       -0.048477083 0.015989155 -0.13175564 0.24342135
000060 a2 f7 03 3e 0b af 21 be 58 05 65 3d 3d b5 8e 3e
       0.12887433 -0.1578943 0.0559133 0.2787265
000070 1e aa 12 3e 80 cf 11 3b ab fa 92 3e b0 68 6c be
       0.14322707 0.0022248924 0.2870687 -0.2308681
000080 9a a3 16 be 7e 87 bf bd bc 5f 84 bd 2b 41 9e 3e
       -0.14710847 -0.09352015 -0.064635724 0.30909094
000090 39 31 3b be 10 b5 38 bd 50 a1 9e 3c 25 74 9c 3e
       -0.18280496 -0.04509455 0.01936403 0.3055736

bias_hh_l0 f4 [40]
000000 ba 6c 10 be ba 8d d1 bd a0 e0 13 3c 90 a1 dd bc
       -0.14103976 -0.1023211 0.009025723 -0.027054578
000010 ae 1d 51 3e 4c 95 3c be b0 e3 a0 bc 88 85 8f 3d
       0.20421478 -0.18416327 -0.01963982 0.07007891
000020 7d 75 63 be 3c ff 31 be 08 e5 ef bd e4 83 e5 3d
       -0.22212787 -0.1738252 -0.11713606 0.11206797
000030 68 7a 50 3d 90 52 e2 3d 22 aa 8b bd 5d 31 28 be
       0.050897986 0.11050904 -0.0681956 -0.1642508
000040 7b a3 80 be 30 1a 2b 3e e0 c0 de bd 0b 33 99 3e
       -0.25124726 0.16709208 -0.10876632 0.29921755
000050 08 67 ec 3d 76 82 7f 3e 68 b0 76 be 4a 72 7a be
       0.11543089 0.2495211 -0.24090731 -0.2445766
000060 14 ae d9 3d f1 d1 15 be dc 6d 05 3e 94 a6 5a be
       0.10628906 -0.14630868 0.1303019 -0.21352607
000070 14 1d 2d be 71 48 9c 3e 80 08 ff bb d8 c2 80 3d
       -0.16905624 0.30524018 -0.0077829957 0.062871635
000080 50 dc 39 3d 58 95 90 be 9c 6c 9e 3d 64 43 bc 3d
       0.045376122 -0.2823894 0.07735559 0.09192541
000090 88 66 71 3d b0 6d 1b 3e ca 2b 70 be a0 3d e3 bc
       0.058935672 0.15178561 -0.23454204 -0.027739346
