tests/_test_data/utils/step_100.pt (torch_old, 28076 bytes, 4 tensors)

weight_ih_l0 f4 [40, 10]
-0.18992768 -0.007911682 -0.21505344 -0.18123876 0.11123377 0.22371891 -0.2183443 -0.16301724
-0.08907013 -0.26942563 0.0064274967 0.0031394064 0.03632468 -0.29322118 0.09295392 -0.23647214
0.29086396 0.033491254 -0.12003137 0.27636442 0.25391182 0.08820379 -0.15213947 0.23751298
0.08259526 0.29822353 0.07554856 0.04699868 0.12466714 0.262423 -0.21307306 0.21463135
0.25284985 -0.15071432 -0.05112511 -0.2955956 -0.020364642 0.10336539 0.18477109 -0.062123895
0.038315445 -0.21479529 0.1289359 0.21436855 -0.23969202 -0.10612427 -0.3125184 -0.3074536
0.024090827 0.1198535 -0.0016141236 0.25790945 0.050903857 0.26078382 0.0808551 -0.28301856
-0.2735673 -0.097008005 -0.3115775 -0.22150269 0.088490605 0.14846876 -0.27080807 0.064430535
0.21962163 -0.015176028 0.25502476 -0.1783646 -0.26078486 -0.27189866 -0.25893614 0.139615
-0.08380781 -0.18287848 -0.11359151 -0.0048653483 0.21084759 -0.06563154 -0.24466953 -0.28835866
-0.2217212 0.097578496 -0.103971034 0.06092745 -0.023524195 -0.22889227 0.058332562 -0.21556795
0.036349237 -0.054746687 -0.022510469 0.29823533 -0.2100641 -0.0042051375 -0.11794165 -0.0029802322
-0.098929286 -0.0057676136 0.1890181 -0.15201868 0.18455407 -0.17697157 -0.21662207 0.28567597
0.022387505 -0.12675272 0.2376416 -0.13399565 -0.059981138 -0.19708669 0.15008515 -0.06809808
-0.013290137 -0.2734764 0.062437862 -0.17128561 -0.31578323 0.18247643 -0.2319543 -0.20791513
-0.17618774 0.01966381 0.19670823 -0.025283456 0.10299221 0.15971985 -0.13723987 -0.24870363
-0.27709472 -0.24863899 0.27245632 -0.14378291 -0.13051286 0.2415466 0.17510715 -0.11797343
0.054475754 0.12282878 -0.14576198 0.2386885 0.09409651 0.24450812 -0.1345752 -0.00668931
-0.23915973 -0.15885983 0.012391925 0.116924286 -0.14129494 -0.08115396 -0.047335356 0.13080856
0.14038998 -0.12135933 0.16964981 -0.054463923 -0.09763269 -0.23092484 -0.052303523 -0.22475636
-0.11379394 -0.15953763 -0.22822872 -0.24316126 -0.0989296 -0.3130197 -0.16878745 0.069793016
-0.19420806 -0.18662588 0.108219594 -0.047903866 -0.20405108 -0.19399476 -0.22790542 0.29821607
0.310142 0.29056105 0.10713756 0.13177574 0.17194495 0.28182366 -0.0764873 -0.009615928
-0.31230226 -0.00213179 0.15738481 -0.07433012 -0.010958403 0.010104865 0.09708029 -0.2244778
0.036106348 0.24140063 -0.13838033 -0.22044714 -0.24801818 0.30946317 0.06361568 -0.1681239
-0.15604872 -0.26145837 -0.24203132 0.22773734 -0.22976376 -0.052889824 -0.22404964 -0.24466413
-0.31508026 -0.24361242 0.15780833 -0.19545463 0.23685065 -0.27648395 -0.00038725138 0.30834278
0.25939652 -0.16398753 -0.24880096 -0.093943 -0.0040684342 -0.13497962 0.16626906 -0.2643634
0.15435368 -0.07315765 0.17307669 -0.12943025 -0.20988096 0.11737737 0.26276293 -0.22786596
-0.0691043 0.21377829 -0.014241546 -0.2004243 0.10630944 0.23759177 0.18981495 0.15627095
-0.103675336 -0.16750194 0.25696787 0.00075146556 0.006346494 -0.27322915 0.21393028 0.1508879
-0.10907039 -0.028299391 0.099149585 0.24775276 0.1573869 0.14807582 -0.17935897 -0.18121715
00000000: 677c 42be 00a0 01bc f836 5cbe a796 39be
00000010: 88ce e33d 9216 653e a695 5fbe feed 26be
00000020: 666a b6bd 28f2 89be c09d d23b 80be 4d3b
00000030: 30c9 143d 1621 96be a05e be3d c125 72be
00000040: 1fec 943e 202e 093d 02d3 f5bd a37f 8d3e
00000050: bb00 823e 30a4 b43d 73ca 1bbe 9a36 733e
00000060: b427 a93d c1b0 983e 34b9 9a3d b081 403d
00000070: 7c51 ff3d 4f5c 863e d32f 5abe 52c8 5b3e
00000080: 8975 813e db54 1abe 9068 51bd 4e58 97be
00000090: c0d3 a6bc 3cb1 d33d a234 3d3e a075 7ebd
000000a0: a8f0 1c3d 4cf3 5bbe c607 043e 6e83 5b3e
000000b0: d371 75be ae57 d9bd 6902 a0be 8f6a 9dbe
000000c0: 205a c53c c075 f53d 0091 d3ba b50c 843e
000000d0: 9080 503d 7585 853e 5c97 a53d cfe7 90be
000000e0: 0311 8cbe 22ac c6bd 1687 9fbe 9ad1 62be
000000f0: 903a b53d 3208 183e 5ba7 8abe 28f4 833d
00000100: 7ee4 603e e0a4 78bc 9b92 823e 36a5 36be
00000110: 9885 85be 4d36 8bbe 4793 84be 3cf7 0e3e
00000120: 6ea3 abbd 7f44 3bbe aaa2 e8bd 806d 9fbb
00000130: 6ee8 573e d469 86bd a68a 7abe bfa3 93be
00000140: e20a 63be 3cd7 c73d c4ee d4bd 108f 793d
00000150: d0b5 c0bc bc62 6abe 20ee 6e3d d8bd 5cbe
00000160: f0e2 143d 103e 60bd e067 b8bc 4db2 983e
00000170: 0b1b 57be 40cb 89bb 648b f1bd 0050 43bb
00000180: 709b cabd 40fe bcbb f68d 413e c9aa 1bbe
00000190: befb 3c3e 0938 35be 2dd2 5dbe 1f44 923e
000001a0: 0066 b73c 77cb 01be 5258 733e 2836 09be
000001b0: c8ae 75bd 18d1 49be ecaf 193e 0277 8bbd
000001c0: e0be 59bc 1905 8cbe d8be 7f3d 7f65 2fbe
000001d0: 57ae a1be 1adb 3a3e 6e85 6dbe b4e7 54be
000001e0: 8f6a 34be 0016 a13c e26d 493e 401f cfbc
000001f0: 94ed d23d 9a8d 233e 9c88 0cbe 2aac 7ebe
00000200: 5cdf 8dbe 389b 7ebe 657f 8b3e d43b 13be
00000210: 2aa5 05be fe57 773e 4a4f 333e 0e9c f1bd
00000220: f821 5f3d a88d fb3d a142 15be c26a 743e
00000230: acb5 c03d 5660 7a3e 15ce 09be 0032 dbbb
00000240: 4ae6 74be 27ac 22be 8007 4b3c 0076 ef3d
00000250: 9faf 10be 0c34 a6bd b8e2 41bd aef2 053e
00000260: 64c2 0f3e 3e8b f8bd aeb8 2d3e 9015 5fbd
00000270: a6f3 c7bd 9077 6cbe 383c 56bd 8826 66be
00000280: cc0c e9bd d55d 23be cab4 69be 44ff 78be
00000290: 9a9b cabd 1e44 a0be 9ed6 2cbe a4ef 8e3d
000002a0: 7ade 46be db1a 3fbe 3ca2 dd3d d836 44bd
000002b0: c4f2 50be 90a6 46be 0a60 69be c7af 983e
000002c0: efca 9e3e 6bc4 943e f06a db3d 38f0 063e
000002d0: 5612 303e 314b 903e 60a5 9cbd 208c 1dbc
000002e0: 15e6 9fbe 80b5 0bbb 7c29 213e 643a 98bd
000002f0: e08a 33bc e08e 253c 08d2 c63d 82dd 65be
00000300: 40e4 133d ba31 773e 93b3 0dbe e5bc 61be
00000310: 7af8 7dbe f571 9e3e f048 823d ac28 2cbe
00000320: 3ccb 1fbe dfdd 85be 0fd7 77be fa33 693e
00000330: 3147 6bbe 00a3 58bd 456d 65be 3c89 7abe
00000340: 3352 a1be 8975 79be 8298 213e 4225 48be
00000350: fa88 723e 4e8f 8dbe 0008 cbb9 1bdf 9d3e
00000360: 9fcf 843e 59ec 27be aec5 7ebe 3065 c0bd
00000370: 8050 85bb 1938 0abe 7042 2a3e a45a 87be
00000380: e40e 1e3e aed3 95bd 043b 313e 5d89 04be
00000390: 09eb 56be 8c63 f03d dd88 863e b255 69be
000003a0: 8e86 8dbd b2e8 5a3e 6055 69bc 073c 4dbe
000003b0: c4b8 d93d 424b 733e da5e 423e 7e05 203e
000003c0: bc53 d4bd a185 2bbe 4b91 833e 00fe 443a
000003d0: 40f6 cf3b b1e4 8bbe 8a10 5b3e 5c82 1a3e
000003e0: 4c60 dfbd 20d4 e7bc f00e cb3d e6b2 7d3e
000003f0: 082a 213e 30a1 173e e1a9 37be fd90 39be

weight_hh_l0 f4 [40, 10]
-0.17660584 -0.28042468 -0.11164795 0.21037373 0.0984568 -0.12948671 0.3150712 -0.042256027
0.09948543 -0.06279451 0.11876622 0.16187018 0.052679986 0.27698442 0.18393323 -0.2526128
0.13066414 0.16362262 0.004728794 0.24732777 0.123716116 -0.14845696 0.2538688 -0.2900424
0.17911124 0.12524948 0.23033342 -0.30920693 0.21701029 0.25208226 0.014300436 -0.27728486
0.061606526 0.13641948 0.014847457 0.03951913 -0.18185186 -0.023224324 -0.14413407 0.06641817
0.06321031 0.053552628 0.00932163 -0.012580782 0.21144101 0.14197484 0.23477218 0.2840564
-0.14518537 0.23686054 0.053093284 0.25530836 -0.085373655 -0.047744185 -0.27638766 0.28324303
0.21053705 -0.24683964 0.14480096 -0.13667607 -0.02649784 -0.12809704 0.22235343 0.13202256
-0.17696097 0.10647023 -0.013502121 -0.06701349 0.048293024 0.25051066 0.23765144 -0.25892782
-0.05827719 -0.24383989 -0.2459127 -0.20049793 0.2519335 -0.013928622 -0.24275857 0.060946792
-0.04131341 0.18034944 0.08301139 0.09091812 -0.15363646 0.19823846 0.2739658 0.12284827
0.30832562 -0.09898463 0.2013587 0.10089457 -0.12098533 -0.15367728 -0.29051566 0.02620241
0.061517328 0.20759812 -0.07527469 -0.004796475 0.17899412 -0.16007105 0.25901303 0.07686284
0.24965104 0.042969823 0.29303136 0.21990576 0.28591946 0.24026647 0.12911427 -0.2776895
-0.2280264 0.25524136 -0.1283216 0.299395 0.12589598 -0.14729035 0.020542294 0.050134987
-0.3080195 -0.14759243 0.13916409 -0.023448199 -0.01762402 0.18414018 -0.21350941 -0.1370128
0.26097098 -0.03396836 -0.27659842 -0.20952846 0.06846517 0.104810625 -0.09586537 0.08657509
-0.10288103 -0.081977084 -0.20638421 0.19647571 0.18429372 0.20591554 -0.035704345 0.13455671
0.121970475 0.17850652 0.03491816 0.24975774 -0.08664133 -0.2617587 0.2080665 -0.21657842
0.3036609 0.04015392 0.29670176 -0.057908356 -0.13478446 0.21612415 0.2527698 -0.091861844
0.03068766 -0.1266979 0.24560085 -0.12039831 0.29755023 0.14766091 -0.25963753 0.2847835
0.0329673 -0.17723082 0.28297326 0.051599264 -0.1683698 -0.1643713 0.0035498142 0.2630494
0.2371926 0.034095764 0.27354303 0.20690182 -0.17132531 0.16049731 0.25685927 0.30307004
-0.012108862 0.16875345 0.27788666 -0.23795548 -0.04224229 -0.010974824 0.15380415 -0.15315051
0.07240066 -0.2813474 0.106057495 0.21594575 -0.30208093 0.19055477 -0.09982166 0.072372526
-0.2846984 -0.123294145 0.30754617 0.15580699 -0.12187506 0.2923657 -0.27601928 -0.094493866
0.03114745 0.18171287 0.19704303 0.22666106 -0.22286655 -0.24958202 -0.24120726 0.16088387
-0.07294561 -0.08419658 -0.019557267 -0.1963188 0.036736846 -0.2460805 -0.22972447 -0.0922706
0.23518619 0.16346517 0.30535182 0.18601367 0.22556719 -0.016008317 -0.30496985 -0.19101201
-0.03645256 0.19220522 0.18479547 0.068287104 0.311389 0.14279285 -0.26367146 0.2606425
0.03206104 -0.08773874 -0.28852123 0.020807445 -0.091599956 0.12743428 -0.17935431 -0.009393752
0.01867655 -0.00014191866 -0.24684183 -0.034873962 -0.31432974 -0.3090317 0.2968324 0.25220862
00000000: 29d8 34be d393 8fbe aea7 e4bd 366c 573e
00000010: b8a3 c93d 2a98 04be 0351 a13e a814 2dbd
00000020: 04bf cb3d 689a 80bd b43b f33d 4cc1 253e
00000030: f8c6 573d e7d0 8d3e fe58 3c3e 7756 81be
00000040: d2cc 053e b08c 273e 00f4 9a3b 7e43 7d3e
00000050: e05e fd3d 1a05 18be 17fb 813e 7080 94be
00000060: f068 373e 6641 003e 86dc 6b3e 5f50 9ebe
00000070: f237 5e3e ed10 813e 604c 6a3c 48f8 8dbe
00000080: 2057 7c3d 8cb1 0b3e c042 733c d0de 213d
00000090: 6037 3abe f040 bebc e297 13be 4006 883d
000000a0: 6874 813d 005a 5b3d c0b9 183c a01f 4ebc
000000b0: fe83 583e da61 113e 1e68 703e d76f 913e
000000c0: 79ab 14be 928b 723e 5878 593d c7b7 823e
000000d0: 62d8 aebd 688f 43bd af82 8dbe 3b05 913e
000000e0: 0697 573e 88c3 7cbe b446 143e d0f4 0bbe
000000f0: 0012 d9bc df2b 03be 9eb0 633e ec30 073e
00000100: 4235 35be 100d da3d 0038 5dbc 5e3e 89bd
00000110: e8ce 453d ef42 803e e65a 733e 3092 84be
00000120: 10b4 6ebd 2ab1 79be 8ad0 7bbe 544f 4dbe
00000130: 6dfd 803e e034 64bc b495 78be 58a3 793d
00000140: 4038 29bd 86ad 383e e001 aa3d 4833 ba3d
00000150: e052 1dbe 06ff 4a3e 3f45 8c3e e097 fb3d
00000160: dbdc 9d3e 74b8 cabd fa30 4e3e d0a1 ce3d
00000170: 28c7 f7bd 945d 1dbe 78be 94be 70a6 d63c
00000180: 98f9 7b3d 9a94 543e 9e29 9abd c02b 9dbb
00000190: 3c4a 373e aae9 23be 5b9d 843e 446a 9d3d
000001a0: 86a4 7f3e 2001 303d 3508 963e fa2e 613e
000001b0: 0964 923e 6a08 763e 8836 043e 512d 8ebe
000001c0: c17f 69be ffae 823e bd66 03be 4d4a 993e
000001d0: e0ea 003e 48d3 16be 5048 a83c 585a 4d3d
000001e0: bbb4 9dbe 7822 17be 0881 0e3e 7016 c0bc
000001f0: 4060 90bc 3e8f 3c3e 36a2 5abe 154d 0cbe
00000200: fd9d 853e 6822 0bbd 4f9e 8dbe a18e 56be
00000210: 7837 8c3d f4a6 d63d 1055 c4bd 484e b13d
00000220: 4ab3 d2bd 9ae3 a7bd 6256 53be ee30 493e
00000230: 7eb7 3c3e 86db 523e b83e 12bd 3cc9 093e
00000240: a8cb f93d 6aca 363e 5806 0f3d 7ec0 7f3e
00000250: 0271 b1bd 3c05 86be 620f 553e bcc6 5dbe
00000260: 7179 9b3e 7078 243d 4be9 973e 5031 6dbd
00000270: f004 0abe a64f 5d3e 0b6b 813e 1022 bcbd
00000280: b064 fb3c 18bd 01be ca7e 7b3e 6493 f6bd
00000290: 8158 983e 6c34 173e 36ef 84be 25cf 913e
000002a0: b808 073d ff7b 35be dfe1 903e c059 533d
000002b0: 2269 2cbe f350 28be 00a4 683b 69ae 863e
000002c0: 9ee2 723e 00a8 0b3d d50d 8c3e 12de 533e
000002d0: e76f 2fbe 6859 243e 0f83 833e ff2b 9b3e
000002e0: 4064 46bc b4cd 2c3e 2947 8e3e 9aaa 73be
000002f0: 4006 2dbd c0cf 33bc d67e 1d3e 7dd3 1cbe
00000300: cc46 943d c40c 90be ac34 d93d e220 5d3e
00000310: 5aaa 9abe ca20 433e 4c6f ccbd 0c38 943d
00000320: fdc3 91be a481 fcbd b176 9d3e de8b 1f3e
00000330: a299 f9bd f5b0 953e 6652 8dbe 0086 c1bd
00000340: f028 ff3c f012 3a3e a6c5 493e d619 683e
00000350: 2137 64be 6e92 7fbe 09ff 76be bebe 243e
00000360: 8264 95bd 426f acbd 9036 a0bc cc07 49be
00000370: 6079 163d 87fc 7bbe e43c 6bbe 5ef8 bcbd
00000380: a6d4 703e 6a63 273e 1357 9c3e 5e7a 3e3e
00000390: 16fb 663e e023 83bc 0225 9cbe a798 43be
000003a0: 484f 15bd 72d1 443e 063b 3d3e 1cda 8b3d
000003b0: 616e 9f3e 4a38 123e f2ff 86be ef72 853e
000003c0: 7052 033d 5eb0 b3bd 0eb9 93be 6074 aa3c
000003d0: c298 bbbd 227e 023e a8a8 37be 40e8 19bc
000003e0: 90ff 983c 00d0 14b9 1bc4 7cbe 00d8 0ebd
000003f0: d4ef a0be 6739 9ebe 6bfa 973e 7d21 813e

bias_ih_l0 f4 [40]
0.17570674 0.2932221 0.046881944 0.28319678 -0.17460498 0.23414996 -0.19764352 0.03703642
-0.08833967 -0.12247814 -0.061408848 0.1374619 0.056292385 -0.07342957 0.010461777 -0.10542521
-0.2531974 -0.025668234 0.15313864 -0.2958149 0.28165933 0.11959359 0.29933915 0.20029745
0.0024577975 -0.19788826 -0.28883985 -0.2571983 -0.07146169 -0.30431014 -0.07832453 -0.15056714
-0.08972885 0.2860405 0.0668298 0.19814691 -0.0036553442 0.27118662 -0.25945133 0.17483553
00000000: 78ec 333e 3521 963e 4807 403d 2bff 903e
00000010: a6cb 32be 02c5 6f3e 1063 4abe 80b3 173d
00000020: 6eeb b4bd d2d5 fabd d887 7bbd d0c2 0c3e
00000030: d892 663d 3e62 96bd e067 2b3c 2ce9 d7bd
00000040: 17a3 81be 3046 d2bc 60d0 1c3e 0d75 97be
00000050: a735 903e 7ced f43d fb42 993e c61a 4d3e
00000060: 0013 213b 38a3 4abe d1e2 93be 7faf 83be
00000070: 825a 92bd 8ace 9bbe 9c68 a0bd 462e 1abe
00000080: c2c3 b7bd e773 923e 10de 883d 06e7 4a3e
00000090: 808e 6fbb f9d8 8a3e ced6 84be 1608 333e

bias_hh_l0 f4 [40]
-0.09313379 0.044943422 0.09300569 0.13469818 0.112452894 -0.20071992 0.28070024 -0.15860428
0.28838357 -0.14417922 0.22795454 0.1468339 -0.2277107 -0.09392102 0.08983675 -0.24585722
-0.14084174 -0.079551116 0.107510924 0.037726283 0.21448055 0.17542017 0.13191497 -0.11252278
-0.2395874 0.30595884 0.19451424 0.07786095 -0.05772072 0.30373117 0.052527636 0.071205616
0.26372895 0.011136562 0.090859294 0.27975324 0.08810583 0.058392882 -0.12968926 -0.19058418
00000000: eebc bebd 9816 383d c479 be3d 52ee 093e
00000010: b44d e63d 8689 4dbe f1b7 8f3e 2969 22be
00000020: 03a7 933e b8a3 13be ea6c 693e a05b 163e
00000030: fe2c 69be aa59 c0bd 54fc b73d ffc1 7bbe
00000040: d138 10be b2eb a2bd b02e dc3d e086 1a3d
00000050: caa0 5b3e 58a1 333e b814 073e 5872 e6bd
00000060: 6656 75be a3a6 9c3e be2e 473e 9075 9f3d
00000070: 906c 6cbd a782 9b3e 3827 573d 40d4 913d
00000080: 7b07 873e 2076 363c 7014 ba3d d13b 8f3e
00000090: d470 b43d 602d 6f3d 43cd 04be 8028 43be
