tests/_test_data/checkpoint.pt (torch_old, 10473 bytes, 4 tensors)

weight_ih_l0 f4 [40, 10]
0	0xbdb54038	-0.088501394
1	0x3ddbb1f4	0.10727301
2	0x3d8b1c90	0.06792557
3	0xbde8154a	-0.113321856
4	0x3dcbc69c	0.09949991
5	0xbe2d268c	-0.16909236
6	0xbe74a77d	-0.23892017
7	0xbe5b7747	-0.2143222
8	0x3e7f06a6	0.2490488
9	0x3d2b6090	0.041840136
10	0x3d9afdc4	0.07567933
11	0xbe6c9e72	-0.23107317
12	0xbda4f912	-0.08055319
13	0x3e0011bc	0.12506765
14	0x3e32cb16	0.17460284
15	0xbe50d283	-0.20392804
16	0xbd026328	-0.031832844
17	0x3e111b0e	0.14170477
18	0xbd7981a0	-0.060914636
19	0xbd6384a8	-0.055546433
20	0x3e2124f6	0.15736756
21	0xbe51aad2	-0.20475319
22	0x3e4ea1c2	0.20178893
23	0xbdd1d4c8	-0.10245663
24	0xbe00a460	-0.12562704
25	0x3dc1c19c	0.09460756
26	0x3dbd31e8	0.092380345
27	0xbe8dad47	-0.27671263
28	0x3e1de70a	0.15420166
29	0xbe9a2b1c	-0.30111015
30	0xbdb1495e	-0.08656572
31	0x3e9dabed	0.3079523
32	0xbe0a84a3	-0.1352716
33	0xbe86875c	-0.26275146
34	0x3e97374d	0.2953438
35	0xbd8e9fb8	-0.06964058
36	0xbdaaba3c	-0.08336303
37	0x3d870d44	0.06594327
38	0xbe2ef9ee	-0.17087528
39	0x3de7a578	0.113108575
40	0xbd27dff0	-0.040985048
41	0xbe12ba0c	-0.14328784
42	0xbe4dfdab	-0.20116298
43	0xbe3cc8f1	-0.18436028
44	0x3ddb0e60	0.10696101
45	0xbe8eba7c	-0.2787665
46	0x3e403c06	0.18772897
47	0xbe60debc	-0.21959966
48	0x3d8483dc	0.06470463
49	0xbea194b7	-0.31558773
50	0x3df84320	0.12122178
51	0xbe335a2d	-0.17514868
52	0x3e2fa69e	0.17153403
53	0xbe905bee	-0.28195137
54	0x3e47c70e	0.19509527
55	0xbdc607bc	-0.09669444
56	0xbe7044c8	-0.23463738
57	0xbe57bbe8	-0.21067774
58	0xbe046d08	-0.12932217
59	0xbe0f9e4d	-0.1402523
60	0xbe7c23a4	-0.24622971
61	0xbe61398a	-0.21994606
62	0xbe16ec1b	-0.14738505
63	0xbe94a683	-0.29033288
64	0x3e2d36ae	0.1691539
65	0x3e1b9b82	0.1519604
66	0xbe05e52c	-0.13075703
67	0x3e870ee1	0.2637854
68	0x3e8f2f3d	0.27965727
69	0xbe7376f6	-0.23775849
70	0x3e6df05e	0.23236224
71	0x3e623baa	0.22093073
72	0x3e819513	0.25309047
73	0x3c93c2a0	0.01803714
74	0x3e379d18	0.1793102
75	0xbe90b4d9	-0.28262976
76	0xbcde7e00	-0.02715969
77	0x3e38c83e	0.18045136
78	0x3e49692e	0.19669029
79	0x3e34ff56	0.17675528
80	0xbe9f6463	-0.31131276
81	0xbd14a098	-0.036285967
82	0xbe99f5b8	-0.3007028
83	0x3e83e7f9	0.2576292
84	0xbd74ad20	-0.059735417
85	0xbe603c9e	-0.21898124
86	0x3cfd78c0	0.030941367
87	0x3e96882f	0.29400775
88	0xbe91cc10	-0.28476
89	0x3e87d309	0.26528195
90	0x3e68ad56	0.22722372
91	0xbe98b9d8	-0.29829288
92	0xbd518ca8	-0.05115953
93	0x3e3c14c8	0.18367302
94	0x3cfe7da0	0.031065762
95	0xbdf36a9a	-0.11885567
96	0xbd77f988	-0.060540706
97	0xbd8858e2	-0.06657578
98	0x3e5e277e	0.21694753
99	0x3db1bbbc	0.086783856
100	0x3d2855a0	0.041097283
101	0x3e38811c	0.18018001
102	0xbe6ca026	-0.23107967
103	0xbe8737f2	-0.2640987
104	0xbda8d58a	-0.08243854
105	0xbe85357c	-0.26017368
106	0xbe55a7a0	-0.20864725
107	0xbe896788	-0.268368
108	0xbd821f88	-0.0635367
109	0xbd619480	-0.05507326
110	0xbd93265c	-0.07185051
111	0xbd970f42	-0.07375957
112	0xbce93260	-0.028466403
113	0xbde5ca1c	-0.1122019
114	0xbe591472	-0.21199206
115	0xbe0e43ef	-0.13893102
116	0x3e9d6add	0.30745593
117	0x3e2389de	0.15970561
118	0x3e098134	0.13428193
119	0x3e7e23b2	0.24818304
120	0xbe84b590	-0.2591977
121	0xbe8ec7fa	-0.27886945
122	0xbd5ffe20	-0.05468571
123	0x3e25f9f2	0.16208628
124	0xbe35a2fb	-0.17737953
125	0x3e37158a	0.1787931
126	0xbe8c0d23	-0.27353773
127	0xbe942608	-0.28935266
128	0x3d800d00	0.062524796
129	0x3d7f1c58	0.06228289
130	0xbe93c0d4	-0.28858054
131	0xbd2de050	-0.04245025
132	0xbe82558d	-0.25455895
133	0x3e6bcafe	0.23026654
134	0xbdeece70	-0.116604686
135	0x3e84149f	0.25796983
136	0x3c1212e0	0.008915633
137	0x3e22ef54	0.15911609
138	0x3e28187e	0.16415593
139	0x3e9dd5d9	0.30827215
140	0xbe3d6c41	-0.18498327
141	0xbe3afbe4	-0.18260151
142	0xbe1d53f4	-0.15364057
143	0xbdd1df8e	-0.10247718
144	0xbe86339a	-0.26211244
145	0xbe58a4b2	-0.21156576
146	0xbe270532	-0.16310576
147	0xbe704bce	-0.23466417
148	0xbe17af0d	-0.1481287
149	0x3e9faed9	0.31188086
150	0xbd0de250	-0.034639657
151	0x3e280308	0.16407406
152	0xbdee4846	-0.11634879
153	0x3e05206e	0.13000652
154	0xbd9a713e	-0.075411305
155	0xbe5bc0b6	-0.21460232
156	0x3e582852	0.21109131
157	0x3de97eac	0.11401114
158	0x3e386778	0.1800822
159	0xbe4ada94	-0.19809943
160	0xbdeb9992	-0.115039006
161	0xbea19299	-0.31557158
162	0xbe86a7ba	-0.2629984
163	0x3e33b2c8	0.17548668
164	0xbddf3546	-0.10898833
165	0x3e932261	0.28737167
166	0x3e984421	0.29739478
167	0x3bbe8d00	0.0058151484
168	0x3e309e6e	0.17247936
169	0xbd29c450	-0.041446984
170	0x3e7e98aa	0.24862924
171	0xbe3f53fc	-0.18684381
172	0xbe175099	-0.1477684
173	0x3d077cd0	0.033078015
174	0x3e359d4e	0.17735788
175	0x3e8ad75f	0.2711744
176	0xbe34cbab	-0.17655818
177	0x3d865edc	0.06561062
178	0xbe925a49	-0.28584507
179	0x3e2be4aa	0.16786447
180	0xbe9bce8f	-0.3043103
181	0x3d9e4ca0	0.07729459
182	0x3d63cab0	0.05561322
183	0x3e94a9bb	0.29035744
184	0xbda0d856	-0.07853763
185	0xbd626a68	-0.05527726
186	0x3ab08a00	0.0013468862
187	0xbe72478d	-0.23660107
188	0x3e631b5e	0.22178409
189	0xbe669c8a	-0.22520652
190	0x3ea1191b	0.31464466
191	0x3e5c955a	0.21541348
192	0x3e37f18c	0.17963237
193	0xbe2a0829	-0.16604675
194	0x3be49d80	0.0069767833
195	0x3cf0e860	0.02940768
196	0xbd0c80b8	-0.034302443
197	0xbdbf2ad6	-0.09334342
198	0x3d8c66ac	0.068555206
199	0xbe045844	-0.12924296
200	0xbe2f7126	-0.17133006
201	0x3e614792	0.21999958
202	0xbe89400a	-0.2680667
203	0xbe228519	-0.15871085
204	0xbe8de865	-0.27716365
205	0xbe846bca	-0.25863487
206	0x3e49b462	0.19697717
207	0x3e7d47d2	0.24734429
208	0x3e77484e	0.24148676
209	0x3ceecd70	0.029150695
210	0xbd558548	-0.05212906
211	0xbe2935a9	-0.16524376
212	0x3e867ae1	0.26265624
213	0xbe0ab231	-0.13544537
214	0xbde09bcc	-0.10967216
215	0x3dbf84c4	0.09351495
216	0xbe16b31d	-0.14716764
217	0x3dd26238	0.1027264
218	0x3e07492c	0.13211507
219	0xbc1937a0	-0.009351641
220	0x3e9a0729	0.30083588
221	0x3e987761	0.2977858
222	0x3e17ea82	0.14835551
223	0x3e422182	0.18958095
224	0x3e893a6b	0.26802382
225	0xbe45f866	-0.19333038
226	0x3d9fcf9c	0.0780327
227	0x3e700e0a	0.23442855
228	0x3e676432	0.22596815
229	0xbdda3940	-0.10655451
230	0xbb361000	-0.0027780533
231	0x3d3a3630	0.045461833
232	0xbe453cf0	-0.19261527
233	0x3e87e393	0.26540813
234	0xbcdb71d0	-0.026787668
235	0x3e984e59	0.29747275
236	0xbe329ea7	-0.17443334
237	0xbd387528	-0.045033604
238	0xbea12d4d	-0.31479874
239	0x3e84f1d5	0.25965753
240	0xbe9e2d15	-0.3089377
241	0xbc130300	-0.008972883
242	0xbd847b88	-0.06468874
243	0xbe46eae4	-0.19425541
244	0x3dfd2090	0.123597264
245	0xbdbd8650	-0.09254134
246	0x3e849c85	0.25900665
247	0xbd82443c	-0.06360671
248	0x3e9b8a43	0.30378923
249	0x3d4aa008	0.049469024
250	0x3e7a65b2	0.24452856
251	0x3e628222	0.22119954
252	0x3d7e7450	0.062122643
253	0x3ea0683d	0.31329527
254	0x3dffb2d0	0.12485278
255	0xbe82b2e1	-0.255271

weight_hh_l0 f4 [40, 10]
0	0x3e8c0c2b	0.27353033
1	0x3de7e7d0	0.113235116
2	0x3df75510	0.12076771
3	0xbd90d054	-0.070709854
4	0xbe50fe1c	-0.20409435
5	0x3db83a14	0.089954525
6	0xbe26b5ad	-0.16280241
7	0xbdf74600	-0.12073898
8	0xbd8885fc	-0.066661805
9	0x3dceca94	0.100972325
10	0x3d7d7c98	0.0618864
11	0xbe44d1c9	-0.19220652
12	0xbdbaf822	-0.09129359
13	0x3e21b164	0.15790325
14	0x3da5b16c	0.08090481
15	0x3dc54954	0.09633127
16	0x3deb64bc	0.11493823
17	0xbe346e3e	-0.17620179
18	0x3d1dd4f8	0.03853318
19	0x3e9ef185	0.3104364
20	0x3e9c6dc5	0.30552498
21	0xbd8a1d64	-0.06743887
22	0x3e7eb9a6	0.24875507
23	0xbe821bf2	-0.25411946
24	0xbe687b22	-0.22703221
25	0xbe7ec7b2	-0.24880865
26	0xbd5855e0	-0.05281627
27	0x3e5597b2	0.20858648
28	0x3e1e4e66	0.15459594
29	0x3dba1284	0.09085563
30	0xbd63b728	-0.055594593
31	0x3dc67e68	0.09692079
32	0xbdd9aa1a	-0.106281474
33	0xbdce5bde	-0.10076116
34	0xbe9890cf	-0.2979798
35	0x3d400ea0	0.046888947
36	0xbe9bb14e	-0.3040871
37	0x3e58054e	0.21095774
38	0x3e69abf6	0.22819504
39	0x3ddb2ec8	0.10702282
40	0xbe12586f	-0.14291547
41	0xbd082848	-0.03324154
42	0xbe415b3b	-0.18882458
43	0xbe7ae85f	-0.24502705
44	0x3e68f45a	0.22749463
45	0x3d32b6b0	0.043631256
46	0x3db75c80	0.0895319
47	0xbd9b2358	-0.07575101
48	0x3e59686e	0.21231243
49	0x3e75a88e	0.2399008
50	0xbe7afd0e	-0.24510595
51	0x3e4c5192	0.19952992
52	0xbdb6ea00	-0.08931351
53	0x3c70f680	0.014707208
54	0xbe18fa87	-0.14939319
55	0x3d936498	0.07196921
56	0xbe6ebd7d	-0.23314472
57	0xbe38ed64	-0.18059307
58	0x3e084f7c	0.13311571
59	0x3d650698	0.05591449
60	0x3e59ba02	0.21262363
61	0xbded03d8	-0.11572999
62	0xbda34710	-0.079725385
63	0xbd2455e8	-0.04012099
64	0x3e843b95	0.25826707
65	0x3e2f6998	0.17130125
66	0x3d3d3de8	0.046201617
67	0x3e80a5d3	0.25126514
68	0x3e89ece3	0.26938543
69	0xbe87af66	-0.26501006
70	0xbd60e420	-0.054905057
71	0xbe971eba	-0.2951563
72	0xbe0cd8e2	-0.13754609
73	0xbe91e75e	-0.28496832
74	0x3e77c92e	0.24197838
75	0x3e56289a	0.20913926
76	0x3e3a0a36	0.18167958
77	0xbe5f85c8	-0.21828377
78	0xbbef7340	-0.00730744
79	0xbe17663d	-0.14785095
80	0xbdacb1c0	-0.084323406
81	0xbe794fdd	-0.24346872
82	0xbe9e92e5	-0.30971447
83	0xbe7a7bba	-0.2446126
84	0xbd65b480	-0.05608034
85	0x3e0a3a5e	0.13498828
86	0xbda6f41e	-0.081520304
87	0x3e885505	0.26627365
88	0x3e214c18	0.15751684
89	0xbd96509c	-0.07339594
90	0xbdb9bd54	-0.090693146
91	0xbe89a439	-0.26883104
92	0xbd8156a4	-0.063153535
93	0x3d9cf1ac	0.07663283
94	0xbe178ff8	-0.14801013
95	0x3df9001c	0.12158224
96	0x3d36a678	0.04459235
97	0x3dc4b8d0	0.09605563
98	0x3e96e435	0.29470983
99	0xbdacca50	-0.084370255
100	0xbe522654	-0.20522434
101	0x3e34b308	0.1764642
102	0xbd098628	-0.033575207
103	0xbe8866d4	-0.26640952
104	0xbe5c6313	-0.21522169
105	0xbd87dc40	-0.06633806
106	0xbdace968	-0.08442956
107	0xbe77c8eb	-0.24197738
108	0xbe3329b2	-0.17496374
109	0x3c0b9ce0	0.008521289
110	0xbe82bbfb	-0.25534043
111	0xbe8f0840	-0.27935982
112	0xbe907aa7	-0.28218576
113	0xbe661da0	-0.22472239
114	0x3e35c168	0.1774956
115	0x3de91378	0.113806665
116	0xbe8e4b7b	-0.27791962
117	0xbd9fbc94	-0.0779964
118	0x3e1540fc	0.14575571
119	0x3e4fd456	0.20295843
120	0xbe8cf815	-0.27533022
121	0x3dfba710	0.12287724
122	0x3e04224e	0.12903711
123	0xbe2b30d9	-0.16717853
124	0x3e441f3a	0.19152537
125	0x3e7665ca	0.24062267
126	0xbe998fa2	-0.29992396
127	0xbe69f26a	-0.2284638
128	0x3d2af620	0.04173863
129	0xbbc11ec0	-0.0058935583
130	0x3ce14ff0	0.027503937
131	0xbe57bda7	-0.2106844
132	0xbdc14078	-0.094361246
133	0x3e41d8ee	0.18930408
134	0x3e9aa5e3	0.30204687
135	0x3e5e0b16	0.21683916
136	0x3e77f35a	0.24213925
137	0x3e78f2be	0.24311349
138	0x3c018520	0.007905275
139	0x3e879ce7	0.26486894
140	0xbe417ba0	-0.18894815
141	0x3ca68990	0.020329267
142	0x3e663862	0.22482446
143	0xbd495f70	-0.049163282
144	0x3c9958d0	0.018719107
145	0xbdccfeb6	-0.1000952
146	0xbe8e7a7a	-0.27827817
147	0xbe8fe34d	-0.28103104
148	0xbe7c9a42	-0.2466822
149	0x3e2292a8	0.15876257
150	0xbe5bd748	-0.21468842
151	0xbd958018	-0.072998226
152	0xbe69be03	-0.2282639
153	0xbded22c2	-0.11578895
154	0xbc8ce4f0	-0.01719901
155	0xbe86281b	-0.26202473
156	0x3e1f2904	0.1554299
157	0xbdfba3f2	-0.122871295
158	0xbe18814d	-0.14893074
159	0x3e09185c	0.13388199
160	0xbe5b83a2	-0.21436933
161	0x3e828219	0.25489882
162	0x3d7d76a0	0.061880708
163	0x3e053ec4	0.13012224
164	0x3e3c2b22	0.18375829
165	0xbdc9746c	-0.09836659
166	0xbe8d61dc	-0.27613723
167	0xbda07866	-0.07835464
168	0x3e98506f	0.29748866
169	0x3e855d7d	0.26047888
170	0x3e7b7a42	0.24558356
171	0xbe9f7b5e	-0.3114881
172	0x3db2e088	0.08734232
173	0xbdf33e26	-0.11877088
174	0x3ddbf68c	0.107403845
175	0x3db1fe40	0.086910725
176	0xbe6714fc	-0.22566599
177	0x3c336ba0	0.010950953
178	0xbe964661	-0.2935057
179	0xbd97df9c	-0.07415697
180	0xbd3db038	-0.046310633
181	0x3e52ce36	0.20586476
182	0x3da21f88	0.0791617
183	0xbd668060	-0.05627477
184	0xbd92d628	-0.07169753
185	0x3dc75c70	0.09734428
186	0xbe9f43af	-0.31106326
187	0xbe46ba1c	-0.19406933
188	0x3e2be498	0.1678642
189	0xbe83109f	-0.25598618
190	0xbdcbccc8	-0.09951168
191	0x3cb8f660	0.022578418
192	0xbd2592a0	-0.040423036
193	0x3e8196db	0.25310406
194	0x3e05ddf2	0.13072947
195	0xbd6ae388	-0.057345897
196	0x3e49e472	0.19716051
197	0xbd3b0a28	-0.045663983
198	0x3e7bd1c2	0.24591735
199	0x3e18e39e	0.14930579
200	0x3e612732	0.21987608
201	0x3ced5c80	0.028974771
202	0x3cef5990	0.029217511
203	0xbde0092e	-0.10939251
204	0xbe3a1643	-0.18172555
205	0xbe2bc84b	-0.16775624
206	0xbd9b7f16	-0.07592599
207	0xbe748d4d	-0.23882027
208	0x3e2e170e	0.17000982
209	0xbe84e6e5	-0.2595741
210	0x3e9a5779	0.3014486
211	0x3cd3f310	0.025872737
212	0xbd9407a6	-0.07228021
213	0x3e8f38d3	0.2797304
214	0xbe6652dc	-0.22492546
215	0x3e801207	0.25013754
216	0x3e67edd2	0.22649315
217	0x3e32cdb4	0.17461282
218	0x3cbee300	0.023301601
219	0x3e4b3d2e	0.19847557
220	0xbe39ec64	-0.18156582
221	0x3d1f6398	0.03891334
222	0x3e09da58	0.13462198
223	0x3c79d320	0.01524809
224	0x3da6ede0	0.0815084
225	0xbdbdcc8e	-0.09267531
226	0x3d626818	0.055275053
227	0xbda086a6	-0.07838182
228	0xbd3a9b18	-0.045558065
229	0xbe22a01e	-0.15881392
230	0x3caf1a00	0.021374702
231	0x3e802cc9	0.25034168
232	0xbe7a19b0	-0.24423862
233	0x3e71b226	0.23603114
234	0xbd9570b4	-0.07296887
235	0xbe378eb4	-0.1792553
236	0xbe6f9d6e	-0.23399898
237	0x3e89b79b	0.26897892
238	0xbe298274	-0.1655367
239	0x3db14b20	0.08656907
240	0x3e59778a	0.21237007
241	0xbd4e34b8	-0.050343245
242	0xbe361e48	-0.17784989
243	0xbd85649c	-0.0651333
244	0xbe7d19c1	-0.24716856
245	0xbdd9e5b0	-0.106395125
246	0xbe3abca0	-0.18236017
247	0xbde98dfe	-0.11404036
248	0x3d5c98f8	0.05385682
249	0x3e95efd1	0.29284528
250	0x3db7f75c	0.08982727
251	0xbe5cf948	-0.21579468
252	0xbd5b71e8	-0.053575426
253	0x3e50c9de	0.20389506
254	0xbd238eb0	-0.039931
255	0x3e964895	0.2935225

bias_ih_l0 f4 [40]
0	0xbd565e00	-0.05233574
1	0x3e3176ea	0.17330518
2	0x3dddf534	0.108377844
3	0xbe568617	-0.20949589
4	0xbe0c08b0	-0.13675189
5	0x3d3dd5d8	0.046346515
6	0x3e947211	0.28993276
7	0x3e89e405	0.26931778
8	0x3e87bd7f	0.26511762
9	0xbe03ffa0	-0.12890482
10	0x3e10454e	0.14088938
11	0xbe8ea9ac	-0.27863824
12	0xbe06c198	-0.13159788
13	0x3caa1d10	0.020765811
14	0x3e4132ca	0.1886703
15	0xbe5cfc98	-0.21580732
16	0xbdf31bb8	-0.11870521
17	0x3e86ec8f	0.26352355
18	0xbe3050ac	-0.17218274
19	0xbe848064	-0.25879204
20	0x3d4076c8	0.04698828
21	0xbd380b00	-0.044932365
22	0xbd5d3380	-0.054004192
23	0xbe5d0d23	-0.21587043
24	0xbdfebfca	-0.124389246
25	0xbe446cf2	-0.19182184
26	0x3e54d6ce	0.20785066
27	0xbde46c3e	-0.11153458
28	0xbe9f7fe4	-0.3115226
29	0xbdb5738c	-0.088599294
30	0xbe4645a1	-0.19362499
31	0xbdeb7bb4	-0.11498204
32	0x3def5268	0.116856396
33	0x3e8940c5	0.26807228
34	0x3e95f01f	0.2928476
35	0xbe826c60	-0.2547331
36	0x3bb46800	0.005505562
37	0x3daf9cdc	0.085748404
38	0x3e93ff53	0.28905734
39	0xbd5d0668	-0.053961188

bias_hh_l0 f4 [40]
0	0xbe58696f	-0.2113397
1	0xbe36aa29	-0.17838348
2	0x3de6ccd0	0.11269534
3	0x3cc5dbb0	0.024152607
4	0xbd2f4068	-0.042786032
5	0xbdf426da	-0.11921473
6	0xbe9abd58	-0.30222583
7	0x3d2df570	0.042470396
8	0xbe978e65	-0.29600826
9	0x3e35dece	0.17760774
10	0x3e521dd6	0.20519194
11	0xbe3010be	-0.17193887
12	0xbcd9eaa0	-0.026601136
13	0x3cfc88e0	0.030826986
14	0x3e26e6f2	0.16299036
15	0x3da293f0	0.07938373
16	0x3e968143	0.29395494
17	0xbe9dcbf5	-0.3081967
18	0xbda8120c	-0.08206567
19	0xbdace80a	-0.084426954
20	0xbe92d026	-0.2867443
21	0x3e940de5	0.2891685
22	0x3dc6ba80	0.09703541
23	0x3e2170a8	0.15765631
24	0x3e9164bb	0.28397164
25	0x3e67f736	0.22652897
26	0x3e222e90	0.15838075
27	0x3e583c12	0.21116665
28	0x3e80b2bb	0.2513636
29	0x3d390f48	0.04518059
30	0xbe766910	-0.24063516
31	0x3e9a54e5	0.30142894
32	0xbded8e14	-0.11599365
33	0xbd3aa858	-0.0455707
34	0x3e357544	0.17720515
35	0x3e8cacd9	0.27475622
36	0xbd92267c	-0.071362466
37	0x3e1af1d8	0.15131319
38	0x3d6895c0	0.056783438
39	0x3e68c80a	0.22732559
