tests/_test_data/checkpoint.pt (torch_old, 11173 bytes, 4 tensors)

weight_ih_l0 f4 [40, 10]
0	0xbe07bcef	-0.13255666
1	0xbc66c260	-0.014084429
2	0x3e9c6aaf	0.30550143
3	0xbe89455e	-0.26810735
4	0xbe985c2d	-0.29757825
5	0x3e91fb71	0.28512147
6	0x3da502b0	0.08057153
7	0xbd64cc68	-0.055859
8	0x3e560b1a	0.20902672
9	0x3e107292	0.14106205
10	0x3e6678ce	0.22507021
11	0x3d2a9ee0	0.04165542
12	0x3e2cca1a	0.1687397
13	0x3e25659c	0.16152042
14	0xbdf19560	-0.11796069
15	0x3e61b846	0.22042951
16	0xbe8952dd	-0.26821032
17	0xbd7c3880	-0.06157732
18	0xbe4e77a0	-0.20162821
19	0x3e90d427	0.2828686
20	0xbe6ec2aa	-0.23316446
21	0xbd06cfb0	-0.03291291
22	0x3e4e4746	0.20144376
23	0xbe4ee708	-0.20205319
24	0xbca60ab0	-0.020268768
25	0x3c063c60	0.008193105
26	0x3de8d29c	0.113682956
27	0x3d187328	0.037219197
28	0xbe082b03	-0.13297658
29	0x3e37a11e	0.17932555
30	0xbdd13478	-0.10215086
31	0xbe15676c	-0.14590234
32	0xbea107d6	-0.3145129
33	0xbe5d5c94	-0.21617347
34	0xbdd27faa	-0.10278256
35	0xbdf932c2	-0.121678844
36	0x3e9b8c87	0.3038065
37	0xbe6d80bc	-0.2319364
38	0xbe77e83a	-0.24209681
39	0x3e17ea0a	0.14835373
40	0x3e0a6596	0.13515314
41	0xbe9e5a11	-0.3092809
42	0x3e230328	0.15919173
43	0xbe1ce4ac	-0.15321606
44	0x3e05093a	0.12991801
45	0x3e967823	0.29388532
46	0x3dbde0d0	0.09271395
47	0xbe960960	-0.29304028
48	0xbe379701	-0.17928697
49	0xbc1c9540	-0.009557068
50	0xbda45b8c	-0.08025274
51	0x3df50fe0	0.119659185
52	0x3e176cb8	0.14787567
53	0xbe3425cf	-0.17592548
54	0x3e428e72	0.18999651
55	0xbe10931c	-0.14118618
56	0x3e8b31f9	0.27186564
57	0xbddb9232	-0.10721244
58	0xbe888602	-0.2666474
59	0x3e841bb5	0.2580239
60	0x3e6b636a	0.22987142
61	0x3c491920	0.012274057
62	0x3e015a3a	0.12632075
63	0x3d208aa0	0.039194703
64	0xbdbef7ba	-0.09324594
65	0xbe2fc069	-0.17163242
66	0xbe0693ae	-0.13142273
67	0x3e1e5f3e	0.1546602
68	0x3deac894	0.114640385
69	0xbe2314d6	-0.15925917
70	0xbe9e8873	-0.30963477
71	0xbddfe512	-0.109323636
72	0x3e8759a5	0.2643558
73	0x3e94ce43	0.29063615
74	0x3e52a532	0.2057083
75	0x3d8fb2d0	0.07016528
76	0x3e25a984	0.16177946
77	0xbe58a5fe	-0.21157071
78	0x3e2a21bc	0.16614431
79	0x3e991995	0.2990233
80	0x3e28695e	0.16446444
81	0xbe03e1ca	-0.128791
82	0xbd4c8428	-0.04993072
83	0x3e15ff92	0.14648274
84	0x3e3cb05e	0.18426654
85	0xbd82d9b4	-0.0638918
86	0xbe818bc0	-0.25301933
87	0xbe95393a	-0.29145223
88	0x3d7d8190	0.06189114
89	0xbda1f9dc	-0.07908985
90	0xbe856e19	-0.2606056
91	0xbdb99b56	-0.09062831
92	0xbe81038c	-0.2519802
93	0x3e5d1a8e	0.21592161
94	0x3e7f585a	0.24936047
95	0xbe4edf56	-0.20202383
96	0x3e93e8cb	0.28888544
97	0x3da436a4	0.08018234
98	0xbe4235e9	-0.18965878
99	0x3e38bd26	0.18040904
100	0xbe81231f	-0.25222108
101	0xbdc7ef76	-0.097624704
102	0x3e8da1eb	0.27662596
103	0x3e45384e	0.1925976
104	0xbe1495fb	-0.14510338
105	0x3e063572	0.13106325
106	0xbe452e9e	-0.19256064
107	0xbe7ddfb6	-0.2479237
108	0xbe7c1054	-0.24615604
109	0x3e490a1a	0.1963276
110	0x3d8de7ac	0.069289535
111	0x3e9fe815	0.31231752
112	0xbe25a058	-0.16174448
113	0x3dd633f4	0.10459128
114	0xbe4d8701	-0.20071031
115	0x3e90f0d3	0.28308734
116	0xb8eef000	-0.00011393428
117	0x3e34f12c	0.17670125
118	0xbd9c25b8	-0.07624382
119	0x3e9b1b31	0.30294183
120	0xbe129496	-0.14314494
121	0xbe929d01	-0.2863541
122	0x3d2d9d88	0.04238656
123	0xbe955f2e	-0.2917418
124	0x3dca3f90	0.09875405
125	0xbe437ad6	-0.19089827
126	0xbdc5527a	-0.09634872
127	0xbe569eb5	-0.2095898
128	0xbe966416	-0.29373235
129	0x3e61b0be	0.22040078
130	0xbea1af02	-0.31578833
131	0xbbb168c0	-0.0054140985
132	0xbbdae680	-0.00668031
133	0x3daa653c	0.0832009
134	0xbe94b876	-0.29046983
135	0xbe1aca25	-0.15116175
136	0xbe8acb85	-0.27108398
137	0x3e8339df	0.2563009
138	0xbe95a40f	-0.2922673
139	0xbe61431e	-0.2199826
140	0xbe939114	-0.28821623
141	0x39ef3800	0.00045627356
142	0xbd913bc4	-0.070914775
143	0xbe4f5d1b	-0.2025036
144	0xbe0b5a4e	-0.13608667
145	0xbe0abb6c	-0.13548058
146	0xbe2767ca	-0.16348186
147	0x3e6359be	0.22202203
148	0xbe8f6c46	-0.28012294
149	0x3e80eff1	0.2518306
150	0xbe793986	-0.2433835
151	0xbe2fd18c	-0.1716978
152	0x3e6827b2	0.22671393
153	0xbd5b1420	-0.05348599
154	0xbd969624	-0.07352856
155	0xbc6e3c20	-0.014540702
156	0x3e1be446	0.15223798
157	0xbe8656a0	-0.26237965
158	0xbe84fc6c	-0.25973833
159	0xbe10f781	-0.14156915
160	0xbd8b335a	-0.06796904
161	0xbe3510a3	-0.17682128
162	0xbe846a3e	-0.25862306
163	0xbd19aaf0	-0.037516534
164	0x3e63564e	0.22200891
165	0x3dec46a8	0.11536914
166	0xbe24e68f	-0.16103576
167	0xbe4eb8db	-0.20187704
168	0x3e17b524	0.14815193
169	0xbe2dbfde	-0.16967723
170	0x3e4068da	0.18789998
171	0x3dcf0a54	0.10109392
172	0xbe94d58a	-0.29069167
173	0xbd5bd128	-0.053666264
174	0xbdbac066	-0.09118728
175	0xbe841f57	-0.2580516
176	0x3dba57d0	0.0909878
177	0x3e99d295	0.30043474
178	0xbe9a9da0	-0.30198383
179	0x3d935abc	0.071950406
180	0x3e9304db	0.28714642
181	0xbe92aded	-0.2864832
182	0xbd990aae	-0.0747274
183	0x3e592572	0.2120569
184	0xbd7e1d28	-0.062039524
185	0xbde87566	-0.11350517
186	0xbe0361f0	-0.12830329
187	0xbd4d0ae0	-0.0500592
188	0x3e13be10	0.14427972
189	0x3d502708	0.050818473
190	0xbd95aaee	-0.07307993
191	0x3e8151a5	0.25257602
192	0x3e18e7b8	0.14932144
193	0xbe0ec728	-0.1394316
194	0x3d5c5d80	0.053800106
195	0x3d5df6b0	0.054190338
196	0x3dabdbcc	0.08391532
197	0xbe321245	-0.17389782
198	0xbe322e34	-0.17400438
199	0xbe760af5	-0.24027617
200	0x3de73488	0.112893164
201	0x3e9b447d	0.3032569
202	0xbe2ff103	-0.17181782
203	0xbd420a00	-0.047372818
204	0xbd5616d0	-0.05226785
205	0xbd7c38a0	-0.06157744
206	0xbe8c4bba	-0.27401525
207	0x3e551dea	0.20812193
208	0x3e7bb40e	0.24580404
209	0x3e91d927	0.28485987
210	0x3e0c0372	0.1367319
211	0xbd0ca7c0	-0.034339666
212	0x3e089bc0	0.13340664
213	0x3db9aec8	0.0906654
214	0xbd9d9838	-0.07695049
215	0x3d9ff13c	0.07809684
216	0xbe76468c	-0.24050349
217	0xbe0033c5	-0.12519749
218	0xbdbedf60	-0.09319949
219	0xbe3a4c00	-0.18193054
220	0x3e58aa92	0.21158817
221	0xbe8d3fba	-0.27587682
222	0x3e37e6b4	0.179591
223	0xbe530e5c	-0.20610946
224	0x3d1f6448	0.038913995
225	0x3e256904	0.16153342
226	0xbe97b975	-0.2963368
227	0xbd5077e8	-0.0508956
228	0xbb45ce00	-0.00301826
229	0xbcdf5130	-0.027260393
230	0xbe165ad9	-0.14683093
231	0x3e3f96f6	0.18709931
232	0xbe9e55f1	-0.30924943
233	0xbe3226a8	-0.17397559
234	0xbe33229c	-0.17493671
235	0x3e9538ad	0.29144803
236	0xbca1eb10	-0.019765407
237	0x3de1b454	0.11020723
238	0xbe902ce0	-0.28159237
239	0xbe8ac0a0	-0.27100086
240	0x3e886e15	0.26646486
241	0x3e3cf116	0.18451342
242	0x3e3188b6	0.17337307
243	0x3e3c1010	0.18365502
244	0x3e386fac	0.1801135
245	0xbd55e7d0	-0.052223027
246	0xbe93ecd6	-0.2889163
247	0xbdc7a95c	-0.097490996
248	0x3e93c6dd	0.28862658
249	0xbe8301a9	-0.25587204
250	0xbe8dfd54	-0.27732337
251	0xbe74dbaa	-0.2391192
252	0x3e108dec	0.14116639
253	0x3e27b8da	0.16379109
254	0x3e17987a	0.14804259
255	0x3e835fc1	0.25658992

weight_hh_l0 f4 [40, 10]
0	0x3e88747b	0.26651368
1	0x3c995860	0.018718898
2	0x3d50d090	0.05098015
3	0x3e8b93cb	0.27261195
4	0xbe30f03a	-0.17279139
5	0xbc18a540	-0.009316742
6	0x3e8b783b	0.27240166
7	0x3e999c65	0.30002132
8	0xbe4f6a6a	-0.20255437
9	0x3e6a5832	0.22885206
10	0x3e132bd2	0.14372185
11	0x3d884c10	0.06655133
12	0xbe6347e0	-0.22195387
13	0x3d2cbd70	0.04217285
14	0x3c95f980	0.018307447
15	0xbc6a4440	-0.014298499
16	0x3c8ea9e0	0.017414987
17	0x3e8ba7fd	0.27276602
18	0x3e896569	0.26835182
19	0xbc907e60	-0.017638385
20	0xbe113495	-0.14180215
21	0xbe96bb5d	-0.29439822
22	0xbe51ac82	-0.20475963
23	0xbe3f327c	-0.18671602
24	0x3e2a123a	0.16608515
25	0x3e8d78af	0.27631137
26	0xbe5eab3a	-0.21745005
27	0x3e396c2e	0.18107674
28	0xbe5f3bcb	-0.21800153
29	0xbe3b4b83	-0.18290524
30	0x3e372db6	0.17888531
31	0xbda0f62e	-0.07859455
32	0xbe89bc67	-0.26901552
33	0x3e2c0a1c	0.16800731
34	0x3e18b48a	0.1491262
35	0xbd8bbfa4	-0.06823662
36	0xbe9cf8e9	-0.30658653
37	0xbca434f0	-0.020044774
38	0x3e0280f8	0.1274451
39	0x3e9cb681	0.3060799
40	0x3e48e722	0.1961942
41	0x3e9af7e3	0.30267248
42	0x3e3e215e	0.18567416
43	0xbe82ce3e	-0.25547975
44	0x3e8e8edd	0.2784337
45	0xbd8dcfa8	-0.06924373
46	0xbcbf8910	-0.023380786
47	0x3ba1e600	0.004940748
48	0xbe236fb8	-0.15960586
49	0xbddf913c	-0.10916373
50	0xbccff370	-0.025384635
51	0x3d3306e0	0.04370773
52	0x3d07d9e0	0.033166766
53	0x3e28b572	0.16475466
54	0xbcf8f660	-0.030390918
55	0xbe88ef06	-0.2674486
56	0x3e3d4282	0.18482402
57	0xbdc22d86	-0.09481339
58	0x3e0f2c62	0.13981774
59	0x3de6f0a4	0.11276367
60	0xbe46f9f0	-0.19431281
61	0x3d4fe840	0.0507586
62	0xbd535a58	-0.05159983
63	0xbe3b749c	-0.18306202
64	0xbd4ee938	-0.050515383
65	0xbd565bb8	-0.052333564
66	0x3c0fbaa0	0.008772522
67	0xbd28e838	-0.041237086
68	0x3dd06980	0.101763725
69	0x3dc80b90	0.0976783
70	0xbe3b1e5c	-0.182733
71	0xbe4f9926	-0.20273265
72	0xbe926fe6	-0.28600997
73	0x3e041f06	0.1290246
74	0x3e3cf49e	0.18452689
75	0xbc05a300	-0.008156538
76	0x3df9b244	0.121922046
77	0xbe2884d7	-0.16456924
78	0xbd5bc9e8	-0.05365935
79	0xbe8bd7ce	-0.27313083
80	0x3e15dbcc	0.14634627
81	0xbe0f67df	-0.14004467
82	0x3da669e8	0.08125669
83	0x3e529f5e	0.20568606
84	0x3df22238	0.11822933
85	0xbe71af35	-0.23601992
86	0xbddf984a	-0.10917719
87	0x3e0951c2	0.13410094
88	0xbe637856	-0.22213873
89	0x3e016fd6	0.12640318
90	0x3e1b00c8	0.15137017
91	0x3d25aa08	0.040445358
92	0xbd704b10	-0.058665335
93	0x3e5702f6	0.20997223
94	0xbe11eb07	-0.14249812
95	0xbe961413	-0.2931219
96	0x3e4450a6	0.1917139
97	0x3e9fb095	0.3118941
98	0x3cb2b250	0.021813542
99	0xbe21644e	-0.1576092
100	0x3ceb67d0	0.028736025
101	0x3e9d252d	0.30692425
102	0x3e081fcc	0.1329338
103	0x3d0af858	0.033928245
104	0xbe8a8559	-0.2705486
105	0xbe3a34fc	-0.18184274
106	0x3de83168	0.113375485
107	0xbe9bac9d	-0.3040513
108	0xbe8c0f73	-0.27355537
109	0xbc716740	-0.014734089
110	0xbe4843fe	-0.19557187
111	0xbe6e423a	-0.23267451
112	0xbd5015c0	-0.050801992
113	0x3e8ba21d	0.2727212
114	0xbd737138	-0.059434146
115	0x3d70ead8	0.058817714
116	0xbd2858a8	-0.041100174
117	0x3d1ef358	0.03880629
118	0x3e869f85	0.2629358
119	0xbde12e4e	-0.1099516
120	0x3d9f2580	0.077708244
121	0x3e4df0f2	0.20111445
122	0x3d754120	0.05987656
123	0xbe7ceabc	-0.24698919
124	0xbc996c40	-0.018728375
125	0x3d1cc588	0.038274318
126	0xbc68eb00	-0.014216185
127	0xbc470900	-0.012148142
128	0xbe2ce076	-0.168825
129	0xbe816394	-0.25271285
130	0x3dbedba8	0.0931924
131	0xbe919248	-0.28431916
132	0x3e473e22	0.19457296
133	0xbe61e65c	-0.22060531
134	0xbd132c90	-0.03593117
135	0xbc2c2280	-0.010506272
136	0xbdba8dd2	-0.09109081
137	0xbe326181	-0.17420007
138	0x3e1c147e	0.15242192
139	0xbdeedcd8	-0.11663216
140	0xbdf66a66	-0.12032013
141	0xbdf882a0	-0.1213429
142	0xbe55933c	-0.20856947
143	0xbd502d90	-0.0508247
144	0x3e839503	0.25699624
145	0x3e0cc3be	0.13746545
146	0x3e2890d8	0.16461504
147	0xbdb5d2ac	-0.08878073
148	0xbe2ef48b	-0.17085473
149	0x3e83e6f5	0.25762144
150	0x3e713bfe	0.23558041
151	0x3e1795bc	0.14803213
152	0xbe3df8f2	-0.18551996
153	0x3d582008	0.052764922
154	0xbe0c656b	-0.13710563
155	0xbe855392	-0.26040322
156	0xbea1204d	-0.31469956
157	0xbd0b9e78	-0.034086674
158	0xbc109880	-0.008825421
159	0xbe3c985a	-0.18417493
160	0x3e82613d	0.25464812
161	0xbe0d6a51	-0.13810088
162	0x3d9f1d38	0.07769245
163	0xbe940549	-0.28910282
164	0xbe2b0867	-0.16702424
165	0x3e4d678e	0.20059034
166	0x3c94e6d0	0.018176466
167	0xbe00ca78	-0.12577236
168	0x3e1e11f0	0.1543653
169	0x3e7adac2	0.24497512
170	0x3e2ce49a	0.1688408
171	0x3e9861ad	0.2976202
172	0x3e1c2fd4	0.1525262
173	0xbe1f5820	-0.15560961
174	0x3e3f09c2	0.18656066
175	0xbe6be4e1	-0.23036529
176	0x3e93b73d	0.28850737
177	0x3c090600	0.008363247
178	0xbd36d920	-0.04464066
179	0xbe1f551d	-0.15559812
180	0xbd96c99c	-0.07362673
181	0x3dbf92a8	0.09354144
182	0x3d1ecf08	0.03877166
183	0xbe3809fe	-0.17972562
184	0xbe34445f	-0.17604207
185	0xbe1681aa	-0.146979
186	0xbd9f93c4	-0.07791856
187	0x3e9d936b	0.30776533
188	0x3e2ce014	0.16882354
189	0xbdfbffba	-0.12304635
190	0xbb552c00	-0.0032527447
191	0x3e6be2ca	0.23035732
192	0x3e3438a0	0.17599726
193	0xbc248a00	-0.010042667
194	0x3e9e942b	0.30972418
195	0x3d9619c8	0.07329136
196	0x3e027dd4	0.12743312
197	0xbe2b2524	-0.16713387
198	0x3d46b830	0.0485155
199	0xbde9f2ca	-0.114232615
200	0xbe3682c8	-0.17823327
201	0x3e9e8d97	0.309674
202	0xbe05788c	-0.13034266
203	0xbe13cbc1	-0.14433195
204	0xbdd51efe	-0.10406302
205	0xbe81508d	-0.25256768
206	0x3ea0282b	0.31280646
207	0x3d9200f4	0.07129088
208	0x3e29562c	0.16536778
209	0xbddd86ec	-0.1081675
210	0x3e96c433	0.29446563
211	0xbd458240	-0.04821992
212	0xbd1cf7c8	-0.03832224
213	0x3e0cd1d4	0.13751918
214	0xbe403dc7	-0.18773566
215	0x3e8e053f	0.27738377
216	0x3e997edb	0.29979596
217	0x3e9ffb37	0.3124635
218	0x3e86af3d	0.2630557
219	0x3e96436f	0.29348323
220	0xbd8f6024	-0.07000759
221	0xbe4aebdf	-0.1981654
222	0xbe25d524	-0.16194588
223	0x3e76a672	0.24086931
224	0x3e8c7d0f	0.27439162
225	0x3de8bc38	0.11364025
226	0xbe87ef75	-0.2654988
227	0x3d692e30	0.056928813
228	0x3e3db11a	0.1852459
229	0xbe98aca0	-0.29819202
230	0x3e786efe	0.2426109
231	0xbe57e474	-0.21083242
232	0x3e8acb19	0.27108076
233	0xbe2d0360	-0.16895819
234	0xbddacbfc	-0.10683438
235	0xbde93eae	-0.11388908
236	0xbe1f8fdf	-0.15582226
237	0x39c52400	0.0003760159
238	0xbd99a542	-0.075022236
239	0xbe22fa8a	-0.15915886
240	0xbe22e8bd	-0.15909095
241	0xbe699077	-0.22809015
242	0x3e24412a	0.16040483
243	0xbe32e6f1	-0.1747091
244	0x3e3dfdce	0.1855385
245	0xbe66be86	-0.22533616
246	0x3d812a48	0.06306893
247	0xbc2cdf00	-0.010551214
248	0x3dcde1fc	0.10052869
249	0x3c981420	0.018564284
250	0xbd417888	-0.04723409
251	0xbe5b4014	-0.21411163
252	0x3e349bc2	0.17637542
253	0xbe4a8cb5	-0.19780238
254	0x3e6be76e	0.23037502
255	0x3e99eced	0.30063573

bias_ih_l0 f4 [40]
0	0xbdf7a524	-0.12092045
1	0x3e1531ee	0.14569828
2	0xbea199fe	-0.315628
3	0x3c8e7ff0	0.01739499
4	0x3e413102	0.18866351
5	0xbe6af26c	-0.22944039
6	0x3dec5bc0	0.115409374
7	0x3d0d4df8	0.034498185
8	0x3bee1dc0	0.00726673
9	0xbdb35aca	-0.08757551
10	0xbe52ce28	-0.20586455
11	0xbe77d78b	-0.24203317
12	0x3e908fef	0.28234813
13	0x3e61451e	0.21999022
14	0x3e57d126	0.21075878
15	0xbe24eabb	-0.16105168
16	0xbe53ca1e	-0.2068257
17	0x3d919b9c	0.07109758
18	0xbe7b7304	-0.24555594
19	0x3e52975a	0.20565549
20	0xbe079c49	-0.13243212
21	0xbe1241f6	-0.14282975
22	0x3e3c75ca	0.18404308
23	0xbe9b9052	-0.30383545
24	0xbe35ce3f	-0.17754458
25	0x3e03c862	0.12869409
26	0x3db7a0a4	0.08966187
27	0xbe0d04e6	-0.137714
28	0xbc5c2f40	-0.013439
29	0x3e5c3f8e	0.21508619
30	0x3ab2d900	0.0013644993
31	0xbcacc410	-0.021089584
32	0xbdadd740	-0.08488321
33	0xbd51f828	-0.05126205
34	0x3c277420	0.010220557
35	0x3e135a40	0.14389896
36	0xbc24cb00	-0.010058165
37	0xbe842904	-0.25812542
38	0x3d9ee480	0.07758427
39	0xbd4e15e8	-0.05031386

bias_hh_l0 f4 [40]
0	0xbd17a158	-0.037019104
1	0x3d569648	0.052389413
2	0xbdedd9a8	-0.1161378
3	0xbdc1ceb2	-0.09463252
4	0x3e0a119c	0.1348328
5	0xbe51c6f4	-0.20486051
6	0xbe70e78f	-0.23525833
7	0x3e700a16	0.23441347
8	0x3e034abe	0.1282148
9	0xbe86b296	-0.26308125
10	0xbdac1736	-0.08402865
11	0x3e5e9642	0.21737006
12	0xbe354ba7	-0.1770464
13	0x3d9e4cc8	0.077294886
14	0xbe5f014a	-0.21777835
15	0xbe735d28	-0.23766005
16	0x3d1b11b0	0.037858665
17	0xbc9fdad0	-0.019513518
18	0xbdb0544e	-0.0860983
19	0xbbf98180	-0.0076143146
20	0x3e387ef8	0.18017185
21	0xbe95004b	-0.29101786
22	0xbe35edf2	-0.1776655
23	0xbe599264	-0.2124725
24	0x3e4a644e	0.19764826
25	0x3e8deae3	0.27718267
26	0xbe7e124c	-0.24811667
27	0xbe078f7f	-0.13238333
28	0xbe330ab2	-0.17484549
29	0x3e8814c3	0.2657834
30	0xbe2373e4	-0.15962178
31	0x3dced440	0.10099077
32	0xbe5727ec	-0.21011323
33	0x3e8be09f	0.2731981
34	0xbd899aec	-0.06719002
35	0x3e0642f2	0.13111475
36	0xbd3f4c10	-0.0467034
37	0x3cb63680	0.022242785
38	0xbd830c2c	-0.06398806
39	0x3e17e9b0	0.14835238
