tests/_test_data/step_100.pt (torch_old, 28090 bytes, 4 tensors)

weight_ih_l0 f4 [40, 10]
0.121578395 -0.24162978 0.28020057 -0.30858406 -0.2866788 -0.19938536 0.027656734 -0.22802645
-0.23913911 0.30401763 0.20583335 -0.07740779 -0.19418329 -0.24051295 -0.0038839877 -0.18041447
0.04886812 -0.050223142 -0.22728837 0.15334257 0.29591057 -0.13392478 0.30148825 0.1491206
-0.010498881 0.14570749 -0.1583778 -0.032855153 0.16910303 0.2990426 -0.15209426 0.035447747
-0.22677225 -0.019686908 0.24249867 0.14607832 -0.13041972 -0.23662609 -0.28122827 0.022229493
0.17784256 -0.00398615 -0.058101237 0.23140559 -0.100222945 0.29058304 -0.12450513 0.27880892
-0.008736134 0.31506482 -0.28703284 -0.15974927 0.2536995 -0.2690358 -0.23196438 0.2722967
0.028296381 -0.043919116 0.2575402 0.170369 0.20929846 0.17344013 0.06411046 0.14787164
-0.234656 0.08525455 0.025415987 -0.19121625 -0.04732755 0.10832009 -0.06764394 -0.14699566
0.2578037 -0.2523937 -0.04526815 0.23262563 -0.24434012 0.27308396 0.11150721 -0.26261118
-0.058762997 -0.16176917 -0.288248 -0.10302462 -0.05250439 -0.21948907 -0.1165728 0.30578753
-0.075050205 -0.14886293 0.12326878 0.18977359 -0.11544399 -0.23177144 -0.24659738 0.099420875
-0.116287276 -0.16275269 -0.020140111 -0.26435724 0.15655744 0.15065083 -0.19076976 -0.22804171
0.3104528 -0.3140693 -0.043809146 -0.28826892 0.20920417 -0.22736195 0.3100148 0.052321434
0.16920212 -0.065636635 -0.044338614 -0.093406454 0.07871407 0.23004511 0.26988092 -0.04583451
-0.2676268 0.20826724 -0.118176356 -0.0713581 0.14820191 -0.24482203 0.029479325 -0.0017496943
-0.21626571 -0.020147592 -0.2603102 -0.056958705 -0.057873487 -0.050582558 0.015488535 0.04703331
0.17367637 0.25179687 -0.028098762 0.06517291 -0.086515054 -0.2608317 0.29360643 -0.21901307
0.17424515 0.10824883 0.23157671 0.1862553 0.2514772 -0.28894478 0.23070654 0.07653442
-0.059036165 0.05913815 0.04141906 -0.21032426 0.038488 0.06672317 -0.16487914 0.2203758
0.23027804 -0.18267098 0.18279594 -0.2526424 -0.07192537 0.15660995 -0.26949444 -0.038326353
0.16277528 0.25234392 0.24761823 -0.12205805 0.070747316 -0.1845703 0.09768981 -0.07969448
0.16629952 0.3150936 0.046318084 -0.008701205 0.09674862 -0.22316974 0.042799324 -0.19269289
-0.3028923 -0.16193767 0.24339166 -0.230995 -0.09127912 0.078924626 -0.15971409 -0.158412
0.120195955 0.09388155 0.2063081 0.053076535 -0.20932594 -0.0102856755 -0.21485919 -0.29828194
0.09589741 0.14649692 -0.14169939 0.13311529 0.15168536 0.17705262 0.15658325 0.26201662
-0.26133996 -0.04596004 0.0013290644 -0.13659084 -0.25953007 -0.22464153 0.28769228 0.15171483
-0.1151464 -0.11386703 -0.23897317 0.23934838 -0.010322124 -0.28004986 -0.15361814 0.04946956
0.18052101 -0.294114 -0.19151308 -0.2817568 0.018959671 -0.2625876 0.13069445 -0.2522718
-0.27860317 0.27161208 -0.25386748 -0.030493796 0.100147665 -0.12888925 -0.18885134 -0.29268527
-0.054614425 0.15326828 0.02110216 0.028619617 0.04246506 -0.2756843 0.17151368 0.24229982
0.07740259 0.21315107 0.042565882 -0.15585876 0.06967944 0.1895499 -0.30327478 -0.2917083
00000000: 18fe f83d cc6d 77be 7376 8f3e bbfe 9dbe
00000010: 90c7 92be ad2b 4cbe 6090 e23c c47f 69be
00000020: e2e0 74be 33a8 9b3e fac5 523e fa87 9ebd
00000030: fcd7 46be 0749 76be 808a 7ebb 92be 38be
00000040: f029 483d c8b6 4dbd 48be 68be d605 1d3e
00000050: 9781 973e 9423 09be ab5c 9a3e 12b3 183e
00000060: 8003 2cbc 5834 153e ca2d 22be 2093 06bd
00000070: 5829 2d3e 1d1c 993e 99be 1bbe a831 113d
00000080: fc36 68be 7046 a1bc 9251 783e 8e95 153e
00000090: bf8c 05be 1c4e 72be 27fd 8fbe a01a b63c
000000a0: 5c1c 363e 409e 82bb 90fb 6dbd 96f5 6c3e
000000b0: b041 cdbd 4dc7 943e 8cfc febd 0bc0 8e3e
000000c0: 0022 0fbc 2d50 a13e f8f5 92be 5095 23be
000000d0: e7e4 813e 0fbf 89be 1288 6dbe 796a 8b3e
000000e0: d0cd e73c 88e4 33bd 4fdc 833e 3675 2e3e
000000f0: 5652 563e 4a9a 313e 584c 833d aa6b 173e
00000100: aa49 70be f099 ae3d 3035 d03c 31ce 43be
00000110: 88da 41bd ecd6 dd3d e888 8abd 0886 16be
00000120: d9fe 833e bf39 81be 186b 39bd 6a35 6e3e
00000130: 4c34 7abe a9d1 8b3e e45d e43d f974 86be
00000140: 78b1 70bd d1a6 25be 3e95 93be 92fe d2bd
00000150: d80e 57bd bec1 60be b8bd eebd 2f90 9c3e
00000160: ecb3 99bd 866f 18be 5874 fc3d 0254 423e
00000170: e66d ecbd 7e55 6dbe 0684 7cbe 2c9d cb3d
00000180: 0628 eebd a4a8 26be e0fc a4bc d559 87be
00000190: 9850 203e 3644 1a3e 2659 43be c483 69be
000001a0: abf3 9e3e b1cd a0be 3871 33bd fc97 93be
000001b0: 9e39 563e 92d1 68be 43ba 9e3e 004f 563d
000001c0: 5243 2d3e 806c 86bd 689c 35bd e24b bfbd
000001d0: d834 a13d f290 6b3e d52d 8a3e f8bc 3bbd
000001e0: 6106 89be 0244 553e 7206 f2bd 3224 92bd
000001f0: 3ec2 173e a0b2 7abe a07e f13c 0056 e5ba
00000200: c274 5dbe 900c a5bc 6147 85be 884d 69bd
00000210: c00c 6dbd a82f 4fbd a0c3 7d3c 00a6 403d
00000220: 38d8 313e 85eb 803e 602f e6bc 6079 853d
00000230: ce2e b1bd bc8b 85be 9553 963e f644 60be
00000240: 526d 323e 90b1 dd3d 7222 6d3e b6b9 3e3e
00000250: 9fc1 803e 92f0 93be 563e 6c3e 14be 9c3d
00000260: e8cf 71bd d83a 723d 08a7 293d 3e5f 57be
00000270: 98a5 1d3d 28a6 883d 14d6 28be 32aa 613e
00000280: 02ce 6b3e 1a0e 3bbe dc2e 3b3e 585a 81be
00000290: 9c4d 93bd 5c5e 203e 2dfb 89be 18fc 1cbd
000002a0: 90ae 263e 3933 813e a28f 7d3e 92f9 f9bd
000002b0: f8e3 903d ffff 3cbe 9811 c83d dc36 a3bd
000002c0: 6c4a 2a3e f353 a13e 08b8 3d3d 808f 0ebc
000002d0: 2424 c63d 9c86 64be 584e 2f3d 4951 45be
000002e0: b314 9bbe fdd2 25be aa3b 793e f489 6cbe
000002f0: 8cf0 babd 3ca3 a13d 178c 23be c136 22be
00000300: 4c29 f63d f844 c03d 6e42 533e c866 593d
00000310: 8a59 56be 4085 28bc 0c04 5cbe 69b8 98be
00000320: dc65 c43d 4a03 163e a519 11be 604f 083e
00000330: 6853 1b3e 484d 353e 5c57 203e 0b27 863e
00000340: 5ace 85be 9840 3cbd 0034 ae3a 78de 0bbe
00000350: 20e1 84be 6e08 66be 674c 933e 225b 1b3e
00000360: e0d1 ebbd 1e33 e9bd 62b5 74be be17 753e
00000370: 201e 29bc b262 8fbe 134e 1dbe 98a0 4a3d
00000380: 80da 383e 1c96 96be 011c 44be 6d42 90be
00000390: 5051 9b3c e271 86be c4d4 053e c529 81be
000003a0: 13a5 8ebe bd10 8b3e ebfa 81be 20ce f9bc
000003b0: 381a cd3d 8bfb 03be 3f62 41be d8da 95be
000003c0: 60b3 5fbd 5cf2 1c3e 70de ac3c b073 ea3c
000003d0: d8ef 2d3d 7e26 8dbe 48a1 2f3e 721d 783e
000003e0: 4085 9e3d 4644 5a3e 9059 2e3d 7099 1fbe
000003f0: 18b4 8e3d 5e19 423e d546 9bbe ca5a 95be

weight_hh_l0 f4 [40, 10]
-0.102449015 -0.17730938 0.16546202 -0.23390281 0.2679467 -0.046494335 0.01749432 0.2003369
-0.12010254 -0.3012151 0.122864574 0.043723643 0.16673672 0.26712796 -0.21774346 0.16330346
0.1227977 0.21552566 0.09090027 0.24630299 -0.1343618 0.208684 -0.25514248 0.23576537
-0.0659897 0.29192302 -0.27770245 0.22867236 -0.065321505 -0.2629778 0.058235437 0.28002325
0.13977444 0.20839313 0.021297187 0.19042501 -0.19530267 -0.095607296 -0.112480074 0.23608354
-0.22845778 0.14958373 0.24990603 -0.056091905 -0.11084168 0.05066085 0.3103275 -0.15013902
-0.015721291 -0.3123187 -0.091319606 0.10917303 -0.15848427 -0.09781718 0.13562867 -0.24315892
-0.058296263 0.254685 -0.079625115 -0.31457603 -0.22744398 0.07204434 0.24068233 0.20716515
0.103197575 -0.28408748 0.29601392 0.11764401 -0.28266767 0.0920555 -0.2557491 0.010972172
0.15853763 0.006100327 0.11013642 0.26819554 -0.13827968 -0.089800104 -0.2338176 0.2237427
-0.31134298 -0.26595342 -0.06588733 -0.24774623 -0.27104908 0.25906226 -0.10247725 -0.009941727
0.23754653 -0.22229043 0.14092544 0.03709957 0.23231801 0.1439228 -0.0059733987 0.1315166
-0.20421615 0.31222573 0.25057736 -0.16172524 0.3152801 -0.016928166 0.10279158 -0.28907138
0.30390063 0.3022928 0.28321192 0.10324356 0.19767728 0.051970154 0.19877204 0.21344742
-0.2295093 0.07548952 0.064190626 0.20609859 -0.21327463 0.014961302 -0.18695901 0.27015898
0.31276354 0.06787774 -0.08986403 0.14496216 0.04174918 0.025933206 0.28043583 0.186192
0.06639913 0.118694365 -0.18484797 0.1702528 -0.3137415 -0.15951109 0.20712724 0.11914152
-0.16676658 -0.030213475 -0.037364393 0.1395002 -0.13532738 0.014551491 -0.13056071 0.03868106
0.13417491 -0.07726684 -0.3094429 0.22385892 -0.19864744 0.21224293 0.016581446 -0.09807299
-0.17153898 -0.14768289 0.25984332 -0.24865723 0.2998155 0.14185542 0.29447678 -0.29027987
-0.13880402 -0.14312313 0.24327019 0.1218088 -0.013831824 0.1722089 -0.004935682 0.23431048
-0.3130163 0.17416883 -0.14835519 -0.13373493 -0.21467847 -0.21175762 -0.019512415 -0.30532572
-0.039942324 -0.018325984 -0.23440304 0.14714345 -0.19280243 -0.098625526 0.0008275211 0.28120843
0.19634894 -0.10782623 0.039741546 0.25990757 0.042690933 -0.035772204 0.2732052 -0.16051482
-0.069287956 0.23732969 0.099738866 -0.31264472 -0.18456572 0.21699241 0.14878455 0.1642943
-0.28162044 -0.19127268 -0.08571009 0.21650413 -0.11764045 -0.07364938 -0.050287426 0.062972635
-0.11030033 0.09535149 -0.20134574 -0.12450762 -0.031271458 0.27854308 0.041352034 0.19732305
0.04318297 -0.015037119 0.13980639 0.10346687 -0.017493546 -0.13951656 0.14990458 0.06533283
-0.19831756 0.30573675 -0.080033496 0.12126917 -0.28212565 0.3153381 0.31213346 -0.002398163
0.29382572 0.13389066 0.117186874 0.09777048 -0.24932018 0.2658747 -0.11158793 -0.010233372
0.11051932 0.0791046 0.011267155 0.12173492 -0.018597066 0.20133033 0.11665207 -0.08888014
0.055942684 -0.30275616 0.18086699 0.26162657 -0.123838186 -0.1255339 0.08609563 -0.13022463
00000000: cad0 d1bd 9790 35be e06e 293e 3884 6fbe
00000010: 4f30 893e d870 3ebd 4050 8f3c 1e25 4d3e
00000020: 52f8 f5bd de38 9abe 6ca0 fb3d 9017 333d
00000030: 08bd 2a3e ffc4 883e 24f8 5ebe 0639 273e
00000040: 5c7d fb3d c2b2 5c3e ec29 ba3d da36 7c3e
00000050: 2496 09be 42b1 553e 09a2 82be 7a6c 713e
00000060: 9c25 87bd ef76 953e 042f 8ebe 1629 6a3e
00000070: 48c7 85bd 07a5 86be 4888 6e3d 355f 8f3e
00000080: 0821 0f3e 0265 553e 7077 ae3c c6fe 423e
00000090: 6cfd 47be c2cd c3bd f45b e6bd e2bf 713e
000000a0: d6f0 69be 7a2c 193e 5ee7 7f3e a0c0 65bd
000000b0: f600 e3bd c081 4f3d 3fe3 9e3e 0bbe 19be
000000c0: f0c9 80bc 3de8 9fbe c605 bbbd 1c96 df3d
000000d0: b349 22be 6054 c8bd 3ee2 0a3e a7fe 78be
000000e0: 10c8 6ebd 1366 823e 7e12 a3bd 1c10 a1be
000000f0: 13e7 68be fc8b 933d 6e75 763e 1a23 543e
00000100: 4059 d33d ea73 91be 238f 973e 58ef f03d
00000110: d1b9 90be 9887 bc3d 8cf1 82be a0c4 333c
00000120: b057 223e 40e5 c73b 348f e13d ed50 893e
00000130: 3099 0dbe 1ee9 b7bd e26d 6fbe ce1c 653e
00000140: 5968 9fbe 0c2b 88be f0ef 86bd 30b1 7dbe
00000150: f2c6 8abe cfa3 843e 98df d1bd a0e2 22bc
00000160: 663f 733e 1aa0 63be c24e 103e b8f5 173d
00000170: c6e4 6d3e 8060 133e 80bc c3bb 4aac 063e
00000180: 0a1e 51be 0ddc 9f3e ad4b 803e 4d9b 25be
00000190: 656c a13e f0ac 8abc 6484 d23d 2a01 94be
000001a0: dd98 9b3e 1fc6 9a3e 2701 913e 5c71 d33d
000001b0: ea6b 4a3e a8de 543d e68a 4b3e f691 5a3e
000001c0: 7c04 6bbe 409a 9a3d 6076 833d 820b 533e
000001d0: aa64 5abe 4020 753c 2f72 3fbe 4752 8a3e
000001e0: 8b22 a03e 7c03 8b3d a20a b8bd f670 143e
000001f0: 3001 2b3d e071 d43c 4995 8f3e 1ea9 3e3e
00000200: 44fc 873d 0816 f33d c948 3dbe c056 2e3e
00000210: baa2 a0be e056 23be 2a19 543e 7800 f43d
00000220: dcc4 2abe 4082 f7bc 680b 19bd 24d9 0e3e
00000230: 4393 0abe 6069 6e3c b5b1 05be 0870 1e3d
00000240: 2665 093e 143e 9ebd 4d6f 9ebe 463b 653e
00000250: 3c6a 4bbe 3656 593e d0d5 873c 7eda c8bd
00000260: eaa7 2fbe 2f3a 17be 2f0a 853e 00a0 7ebe
00000270: 6b81 993e 8c42 113e a9c5 963e 909f 94be
00000280: a422 0ebe df8e 12be d21b 793e e476 f93d
00000290: e09e 62bc 8857 303e 80bb a1bb 16ef 6f3e
000002a0: ac43 a0be 5059 323e 6cea 17be cff1 08be
000002b0: acd4 5bbe fdd6 58be 80d8 9fbc a753 9cbe
000002c0: 909a 23bd 6020 96bc 5a07 70be c6ac 163e
000002d0: 006e 45be 2efc c9bd 00ee 583a 8dfa 8f3e
000002e0: b20f 493e 00d4 dcbd 08c8 223d 9b12 853e
000002f0: b0dc 2e3d e085 12bd 8de1 8b3e ff5d 24be
00000300: d8e6 8dbd 8e06 733e e443 cc3d f812 a0be
00000310: ccfe 3cbe 4233 5e3e fa5a 183e c43c 283e
00000320: 8e30 90be fcdc 43be c688 afbd 42b3 5d3e
00000330: 7aed f0bd 7cd5 96bd 30fa 4dbd ccf7 803d
00000340: 24e5 e1bd a447 c33d 942d 4ebe dafd febd
00000350: 8016 00bd 339d 8e3e c060 293d 0e0f 4a3e
00000360: a0e0 303d 405e 76bc 6829 0f3e 70e6 d33d
00000370: a04e 8fbc 6edd 0ebe 9680 193e 38cd 853d
00000380: c213 4bbe 8789 9c3e 9ae8 a3bd f85b f83d
00000390: c672 90be ff73 a13e f5cf 9f3e 802a 1dbb
000003a0: 5370 963e a21a 093e acff ef3d e43b c83d
000003b0: ca4d 7fbe bb20 883e 3688 e4bd e0a9 27bc
000003c0: f457 e23d 9801 a23d e099 383c 2850 f93d
000003d0: e058 98bc 8a29 4e3e 48e7 ee3d ca06 b6bd
000003e0: 2824 653d db02 9bbe 3235 393e ebf3 853e
000003f0: e09e fdbd f58b 00be e852 b03d 9b59 05be

bias_ih_l0 f4 [40]
-0.036812842 -0.28800306 0.14429072 0.027563542 -0.15382175 -0.17345405 -0.111038715 -0.044332266
-0.052687883 0.21202937 0.12628752 -0.3047967 0.11130664 -0.25709048 -0.18027073 -0.19162421
0.26718095 0.032417566 0.06868273 0.0421035 -0.14853308 0.088356555 -0.1497677 -0.14831135
0.23279664 -0.19671527 0.06305677 -0.1495918 0.0997915 -0.09246078 0.23935685 0.067573905
0.028638095 0.15235725 -0.008161515 0.105321795 -0.08593978 -0.087218404 -0.022320896 -0.2702514
00000000: 10c9 16bd 2375 93be f2c0 133e f0cc e13c
00000010: 7383 1dbe f09d 31be 4468 e3bd c095 35bd
00000020: 40cf 57bd 3a1e 593e 8451 013e 500e 9cbe
00000030: bcf4 e33d 5da1 83be e498 38be 2339 44be
00000040: f1cb 883e 48c8 043d 88a9 8c3d b874 2c3d
00000050: 0e19 18be 48f4 b43d b45c 19be eede 17be
00000060: 3e62 6e3e ba6f 49be e823 813d 982e 19be
00000070: 7c5f cc3d 145c bdbd f619 753e 3064 8a3d
00000080: 709a ea3c 8a03 1c3e e0b7 05bc f4b2 d73d
00000090: 3201 b0bd 909f b2bd 50da b6bc 645e 8abe

bias_hh_l0 f4 [40]
-0.0892231 0.23383602 -0.19030815 0.2866684 0.29676726 -0.018548042 0.19672677 0.16503432
-0.07118639 0.06766698 -0.25730336 0.20186564 -0.28849626 0.18058342 -0.2672946 0.20859918
-0.18996827 0.26471087 -0.019024849 0.22319111 0.19015494 -0.3004911 -0.22576842 -0.13159995
-0.15482844 0.12137824 -0.05671236 0.13687187 0.08414894 0.059472263 -0.0004643798 0.012557656
-0.002366066 0.0105216205 0.07542825 0.18659732 -0.055823058 0.19430259 -0.13262497 0.10785276
00000000: 9aba b6bd b672 6f3e 24e0 42be 33c6 923e
00000010: e1f1 973e 10f2 97bc be72 493e c2fe 283e
00000020: 2cca 91bd fc94 8a3d 44bd 83be deb5 4e3e
00000030: c8b5 93be dcea 383e d6da 88be 069b 553e
00000040: 0b87 42be 2f88 873e 00da 9bbc 368c 643e
00000050: fab7 423e f8d9 99be d62f 67be 23c2 06be
00000060: 598b 1ebe 2895 f83d 384b 68bd 2428 0c3e
00000070: 4856 ac3d 3099 733d 0078 f3b9 a0be 4d3c
00000080: 0010 1bbb e062 2c3c 207a 9a3d 5e13 3f3e
00000090: b8a6 64bd 42f7 463e d7ce 07be e8e1 dc3d
