tests/_test_data/step_10.pt (torch_old, 11147 bytes, 4 tensors)

weight_ih_l0 f4 [40, 10]
0.1287831 -0.08951646 0.17975038 -0.10277325 0.14598107 0.17505762 0.31575295 0.07292861
0.18684104 0.28952977 -0.12149967 0.16609588 -0.002974689 0.017522126 0.23427376 0.28473493
-0.30445406 -0.039544314 -0.106223 0.28255293 -0.29863304 0.24839684 0.22197339 0.19256905
0.2449933 -0.2301313 0.25719127 0.18972221 0.070288956 -0.030041218 -0.19520557 -0.10490695
-0.1246708 -0.048294365 -0.28033027 0.18296647 -0.07289517 -0.12097214 0.12107614 0.27620772
0.08177915 -0.15416396 0.25999382 -0.08220297 -0.21859896 0.12525097 0.2552872 -0.24464205
-0.30247962 -0.16422205 0.2955955 0.08455962 -0.15265219 0.23121259 -0.17513466 0.22200677
-0.1071222 0.24802837 -0.038306475 -0.06851961 -0.27506506 0.037617683 0.17759919 0.0835076
-0.16166255 -0.12112191 0.24194196 0.1352467 0.20985451 0.06874403 0.14053133 -0.021215439
-0.24510649 0.13444218 -0.13835798 0.08432162 -0.07546699 0.06384024 -0.3065332 0.14122486
0.21845683 -0.09319109 -0.24938896 -0.18620594 0.29890785 -0.1471354 -0.2936022 -0.22238806
-0.29945308 -0.15518779 0.27864626 -0.18780895 0.1637142 -0.08575371 0.30143955 0.19192252
0.28738174 0.06779313 0.13565004 0.26260373 0.17765269 -0.16609165 -0.2604146 0.070763975
-0.25892127 0.066633314 0.15780172 0.18088183 -0.18831295 0.11913198 -0.03784418 0.26521203
0.16969925 0.20956108 0.23201713 -0.110651836 -0.048272967 -0.13186982 -0.11207445 -0.12492286
0.091201454 -0.20999527 0.2774205 0.16221648 0.3079628 0.20095405 0.031227231 0.16455296
0.25774428 -0.0023818314 -0.16624798 0.29942372 -0.30371732 -0.16207425 -0.008604169 0.12567881
-0.16286902 -0.16158268 -0.012984425 -0.30257905 -0.23116156 0.17410585 0.23378494 0.004939288
-0.30591375 0.18030551 -0.2338227 0.20623437 -0.11040495 0.20883033 -0.27148157 0.13723049
0.2510968 -0.2847754 -0.24274448 0.122724384 -0.04672876 -0.17420377 -0.20033514 0.1820767
-0.01825878 -0.12316091 -0.2038534 0.22132751 -0.0008300245 0.2361376 0.2729657 -0.12287709
-0.22250488 0.26750723 0.09441447 -0.1153235 0.10048917 0.08268452 0.20194349 0.22297487
-0.075534776 0.10357517 0.27803013 -0.17975397 -0.25643653 -0.1345052 0.18809631 0.2582737
-0.049393892 0.29461208 0.2179884 0.05471757 0.27611318 0.20218769 -0.09386903 -0.14891243
0.13309467 -0.16154324 -0.29550847 0.20040604 -0.21752515 0.24840686 -0.011743844 -0.25988737
-0.2850999 -0.15008786 -0.22857264 -0.21025929 -0.04313463 -0.30934453 0.18228573 0.239153
-0.18558186 -0.14652129 0.15622008 -0.079403 -0.19175419 0.2673551 0.06251398 0.17928043
0.23515919 -0.16798458 0.14122343 0.24884889 0.19445774 0.26453236 0.29161718 0.1095373
-0.2695616 0.2173455 -0.31171143 -0.09069824 -0.1214066 0.024599105 0.23504421 0.0021744072
-0.022595942 -0.2886827 0.06811935 -0.22748277 0.25398466 0.29989412 -0.013566434 -0.048336893
0.090625584 -0.16363823 -0.08411418 -0.25001734 0.023732692 -0.05236414 -0.1926438 -0.11226207
0.19128153 -0.1718709 0.15832525 0.15673065 -0.034125596 0.21116748 0.31413904 -0.05887106
00000000: b8df 033e 6854 b7bd 7c10 383e c87a d2bd
00000010: 107c 153e 4e42 333e 5faa a13e 985b 953d
00000020: 4253 3f3e 3f3d 943e d2d4 f8bd 0a15 2a3e
00000030: 00f3 42bb 908a 8f3c 76e5 6f3e c7c8 913e
00000040: 67e1 9bbe 38f9 21bd 728b d9bd c7aa 903e
00000050: 6ee6 98be be5b 7e3e fe4c 633e d230 453e
00000060: 86df 7a3e 8aa7 6bbe 93ae 833e 8a46 423e
00000070: a8f3 8f3d 0019 f6bc f8e3 47be 74d9 d6bd
00000080: 6853 ffbd 50d0 45bd 7387 8fbe 905b 3b3e
00000090: 104a 95bd 3ec0 f7bd c4f6 f73d 196b 8d3e
000000a0: d47b a73d 28dd 1dbe e91d 853e 085a a8bd
000000b0: 68d8 5fbe ca41 003e 01b5 823e 7283 7abe
000000c0: 9cde 9abe d329 28be 4b58 973e 982d ad3d
000000d0: db50 1cbe fec2 6c3e 8056 33be be55 633e
000000e0: e262 dbbd 26fb 7d3e 40e7 1cbd 0254 8cbd
000000f0: 54d5 8cbe 0015 1a3d 90dc 353e 0806 ab3d
00000100: de8a 25be c40e f8bd a2bf 773e 1c7e 0a3e
00000110: 1ae4 563e acc9 8c3d 72e7 0f3e 00cc adbc
00000120: 32fd 7abe 36ab 093e b7ad 0dbe d0b0 ac3d
00000130: 708e 9abd acbe 823d ebf1 9cbe 409d 103e
00000140: 26b3 5f3e f8da bebd d25f 7fbe c5ac 3ebe
00000150: 730a 993e aaaa 16be 0753 96be b2b9 63be
00000160: ea51 99be 8ce9 1ebe b9aa 8e3e fd50 40be
00000170: b2a4 273e a49f afbd 4956 9a3e 5687 443e
00000180: b323 933e 20d7 8a3d d8e7 0a3e ff73 863e
00000190: 96ea 353e ee13 2abe 1055 85be b4ec 903d
000001a0: 5491 84be 0c77 883d c696 213e 1639 393e
000001b0: 1cd5 40be 78fb f33d 8002 1bbd dfc9 873e
000001c0: a4c5 2d3e 2e97 563e e695 6d3e 6e9d e2bd
000001d0: e0b9 45bd e208 07be 4a87 e5bd 8ed7 ffbd
000001e0: d4c7 ba3d 0009 57be 0f0a 8e3e 141c 263e
000001f0: 4dad 9d3e e6c6 4d3e 40d0 ff3c 9280 283e
00000200: 0ff7 833e 8018 1cbb e93c 2abe 114e 993e
00000210: d680 9bbe cbf6 25be 80f8 0cbc f2b1 003e
00000220: 23c7 26be ee75 25be a0bc 54bc a4eb 9abe
00000230: 9eb5 6cbe ce48 323e 5265 6f3e c0d9 a13b
00000240: baa0 9cbe 02a2 383e 386f 6fbe 1a2f 533e
00000250: fe1b e2bd 9ed7 553e a2ff 8abe 2686 0c3e
00000260: c38f 803e 15ce 91be 0292 78be ec56 fb3d
00000270: a866 3fbd 7962 32be a824 4dbe 5072 3a3e
00000280: 7093 95bc ca3b fcbd f2be 50be aea3 623e
00000290: 0096 59ba 0ece 713e 29c2 8b3e fca6 fbbd
000002a0: 52d8 63be b5f6 883e 605c c13d ba2e ecbd
000002b0: 44cd cd3d 8056 a93d 46ca 4e3e 8653 643e
000002c0: fab1 9abd 381f d43d f759 8e3e 6d11 38be
000002d0: a64b 83be bbbb 09be 529c 403e 733c 843e
000002e0: 4051 4abd 65d7 963e 5a38 5f3e 881f 603d
000002f0: b55e 8d3e 4a0a 4f3e 683e c0bd 807c 18be
00000300: f849 083e 976b 25be e34c 97be 3e37 4d3e
00000310: eabe 5ebe 5e5e 7e3e 4069 40bc f50f 85be
00000320: 9df8 91be a2b0 19be f20e 6abe 364e 57be
00000330: f0ad 30bd 6862 9ebe 1ca9 3a3e 86e4 743e
00000340: 2c09 3ebe ad09 16be 28f8 1f3e 0a9e a2bd
00000350: 365b 44be c5e2 883e 5407 803d 4a95 373e
00000360: 92cd 703e 2604 2cbe e09c 103e 3ed2 7e3e
00000370: ee1f 473e c970 873e d94e 953e 1855 e03d
00000380: fa03 8abe d28f 5e3e a498 9fbe 00c0 b9bd
00000390: 06a4 f8bd 1084 c93c 6eaf 703e 8080 0e3b
000003a0: 201b b9bc 38ce 93be 2882 8b3d 3ef1 68be
000003b0: 470a 823e b98b 993e c045 5ebc e8fc 45bd
000003c0: e899 b93d c890 27be 0e44 acbd 4602 80be
000003d0: 106b c23c c87b 56bd 6b44 45be a8e9 e5bd
000003e0: 4edf 433e edfe 2fbe 0420 223e 007e 203e
000003f0: 48c7 0bbd 4a3c 583e d5d6 a03e c822 71bd

weight_hh_l0 f4 [40, 10]
-0.17310406 -0.025176167 0.10152894 0.22554877 -0.21289572 0.0325543 -0.2848344 0.17212513
0.2346262 0.18949774 -0.10022491 -0.25876707 -0.045132697 -0.12168914 0.29475465 -0.29033354
0.1601668 -0.1359337 0.14793211 0.1468747 0.0037981272 -0.11661109 -0.27080417 -0.053697407
-0.010413468 0.21297202 -0.25760812 -0.1622656 0.073711604 0.15204003 0.21019998 0.07721844
0.27702966 -0.076352194 -0.10239673 0.17181978 -0.23477402 0.10349572 0.16592675 0.12005314
-0.13300043 -0.17249951 -0.25767705 0.07870895 -0.1431602 -0.03742549 0.09419605 -0.17817046
-0.005668819 -0.26118985 0.14906213 0.23742607 0.20548561 0.11588082 0.12312335 -0.27095237
-0.12530668 -0.29676947 0.29538634 0.14696205 0.31484064 -0.08538918 -0.29198658 0.094634175
0.14664203 0.29328772 -0.18291037 -0.20691884 -0.027421385 -0.28210136 -0.04276836 0.13227335
0.14933476 -0.20049778 0.083156675 -0.19922423 0.2623373 0.06773844 -0.160003 -0.25850597
-0.23717293 0.011796087 0.0809665 0.26662168 0.06071955 -0.21216881 -0.1281414 -0.29437196
0.20204952 0.2664359 0.19946447 -0.24216148 0.09892467 -0.18383048 0.00081694126 0.07360399
0.1676746 0.23270878 -0.23144358 -0.044038475 -0.27650982 -0.13867976 0.018938243 -0.0395841
0.103260934 -0.027816892 0.065690994 0.15811026 0.2480531 0.047107577 -0.15378258 0.020613581
0.21232685 0.057158172 0.1683217 0.221647 -0.202917 0.115284264 -0.2861926 0.3132328
-0.19857413 0.1542879 0.21859232 0.13020387 -0.022898078 -0.27944016 -0.004490614 -0.062210888
-0.0049178004 0.055684835 -0.003129661 0.14940912 -0.27995053 -0.2656299 0.21506056 0.20494267
-0.12136148 -0.21716744 -0.1423635 -0.052529067 -0.1836262 -0.16945459 -0.046067297 0.2117522
0.24458721 -0.16864526 0.2642406 0.19800243 -0.0578835 -0.033514142 -0.16473627 -0.19674298
0.22375855 -0.13493778 -0.109944284 0.26654097 -0.03977117 -0.28671643 -0.30330554 0.16911817
0.19734088 0.15714294 0.21454903 0.29004458 0.10669926 0.14869204 -0.29908767 0.0733175
0.23620209 0.12518278 -0.117464855 0.31044784 0.23182908 -0.18223351 0.17091766 -0.12128748
-0.040867507 -0.14981765 0.28401884 0.2765467 -0.124895975 -0.2724985 0.067970425 0.18654832
0.09835389 0.02075836 0.10274893 -0.02699539 0.031344503 0.2267386 -0.054727137 -0.021822244
0.2097893 0.012393504 -0.29548824 -0.2895577 -0.16252959 -0.13126588 -0.120798245 0.28135934
0.18952587 -0.14211553 0.26713607 -0.1023951 0.15418401 -0.0755638 -0.05034429 0.19305065
-0.12980661 -0.28836408 -0.032471955 -0.20508659 0.16906989 0.06993443 -0.054510266 -0.07981926
-0.01204744 0.022241145 0.1804488 -0.06644893 -0.15031552 0.124491364 0.1520274 -0.15964371
0.19108006 0.23593345 0.05211851 -0.23914766 0.10423681 -0.21922186 0.23496273 0.11921704
0.3117256 -0.13554059 -0.055188477 -0.023030102 -0.076880306 0.04996094 -0.17304283 0.06037104
-0.2826117 -0.2987331 -0.0049754083 -0.14052331 0.3086126 0.00905773 0.09262735 0.04485193
0.06437561 -0.18539684 0.22881648 -0.24978633 0.25694683 -0.19509086 -0.07507706 -0.029499441
00000000: 3142 31be 403e cebc 68ee cf3d 42f6 663e
00000010: 5601 5abe a857 053d d1d5 91be 9241 303e
00000020: da41 703e b20b 423e b842 cdbd 1e7d 84be
00000030: 10dd 38bd 2838 f9bd 15ea 963e 99a6 94be
00000040: c402 243e 3432 0bbe 847b 173e 5266 163e
00000050: 00ea 783b ccd1 eebd d8a6 8abe d0f1 5bbd
00000060: 409d 2abc 5615 5a3e 36e5 83be f428 26be
00000070: 1cf6 963d 62b0 1b3e aa3e 573e b424 9e3d
00000080: d5d6 8d3e 8a5e 9cbd 60b5 d1bd 86f1 2f3e
00000090: 9a68 70be 90f5 d33d b4e8 293e 6cde f53d
000000a0: 4431 08be b6a3 30be 3fee 83be 2832 a13d
000000b0: 9698 12be 784b 19bd dce9 c03d 5172 36be
000000c0: 80c1 b9bb adba 85be bea3 183e d21f 733e
000000d0: d26a 523e ec52 ed3d 1828 fc3d 45ba 8abe
000000e0: 6550 00be 2bf2 97be e13c 973e 387d 163e
000000f0: cb32 a13e 86e0 aebd 447f 95be 90cf c13d
00000100: 5429 163e cf29 963e db4c 3bbe 88e2 53be
00000110: d0a2 e0bc 976f 90be e02d 2fbd aa72 073e
00000120: 36eb 183e 4a4f 4dbe 0c4e aa3d 7001 4cbe
00000130: 1351 863e 74ba 8a3d d4d7 23be e55a 84be
00000140: 76dd 72be 6044 413c c4d1 a53d a382 883e
00000150: 10b5 783d c842 59be 8037 03be ecb7 96be
00000160: 12e6 4e3e 496a 883e 6a40 4c3e 2ef9 77be
00000170: 0499 ca3d 0f3e 3cbe 0028 563a b0bd 963d
00000180: e4b2 2b3e 364b 6e3e 8cff 6cbe b061 34bd
00000190: b292 8dbe 1102 0ebe 6024 9b3c f022 22bd
000001a0: 787a d33d 40e0 e3bc 0089 863d a8e7 213e
000001b0: a201 7e3e e0f3 403d 2e79 1dbe d0dd a83c
000001c0: 366c 593e b01e 6a3d 865c 2c3e 6ef7 623e
000001d0: 79c9 4fbe 281a ec3d d687 92be 0d60 a03e
000001e0: 0457 4bbe a6fd 1d3e aad6 5f3e 2a54 053e
000001f0: c094 bbbc c812 8fbe 0026 93bb d8d0 7ebd
00000200: 8025 a1bb c815 643d 001b 4dbb b4fe 183e
00000210: ad55 8fbe a400 88be d638 5c3e 7edc 513e
00000220: 5e8c f8bd 2461 5ebe bdc7 11be b828 57bd
00000230: 8208 3cbe 8185 2dbe 10b1 3cbd 92d5 583e
00000240: 1275 7a3e 58b1 2cbe 8b4a 873e 26c1 4a3e
00000250: 4017 6dbd 2046 09bd a0b0 28be fe76 49be
00000260: f620 653e 212d 0abe 782a e1bd 0f78 883e
00000270: 18e7 22bd 7fcc 92be dd4a 9bbe 502d 2d3e
00000280: ba13 4a3e 14ea 203e beb2 5b3e b980 943e
00000290: 2485 da3d ba42 183e 0522 99be 7c27 963d
000002a0: f6de 713e ea2f 003e 6a91 f0bd 05f3 9e3e
000002b0: 9a64 6d3e 6c9b 3abe 0a05 2f3e 9265 f8bd
000002c0: b064 27bd cc69 19be eb6a 913e 8797 8d3e
000002d0: 76c9 ffbd ec84 8bbe 1434 8b3d 8606 3f3e
000002e0: c46d c93d 700d aa3c 086e d23d 7025 ddbc
000002f0: 1863 003d 2a2e 683e 9029 60bd 90c4 b2bc
00000300: 02d3 563e 200e 4b3c 3c4a 97be e840 94be
00000310: 286e 26be 906a 06be 1265 f7bd 550e 903e
00000320: 1213 423e bc86 11be 0fc6 883e 86b4 d1bd
00000330: 6ae2 1d3e 32c1 9abd d035 4ebd 12af 453e
00000340: 06ec 04be 75a4 93be 5001 05bd 3802 52be
00000350: a820 2d3e c839 8f3d 2846 5fbd 4878 a3bd
00000360: a062 45bc 1033 b63c 92c7 383e 6016 88bd
00000370: 50ec 19be 54f5 fe3d 12ad 1b3e a479 23be
00000380: 7eaa 433e 8a98 713e 387a 553d 20e3 74be
00000390: 1c7a d53d b27b 60be 129a 703e 1028 f43d
000003a0: 7f9a 9f3e 27cb 0abe 500d 62bd a0a9 bcbc
000003b0: 6c73 9dbd d8a3 4c3d 2432 31be a047 773d
000003c0: 7bb2 90be 8bf3 98be c008 a3bb 58e5 0fbe
000003d0: 7902 9e3e e066 143c 68b3 bd3d a8b6 373d
000003e0: 5cd7 833d abd8 3dbe de4e 6a3e fdc7 7fbe
000003f0: 898e 833e e6c5 47be 00c2 99bd d0a8 f1bc

bias_ih_l0 f4 [40]
0.25137386 -0.10745841 -0.30487335 0.11355814 0.17032221 0.027665019 0.12031278 -0.12990522
0.10272002 0.2979119 0.30549547 -0.18412384 -0.3143325 0.11211535 -0.050780654 0.16992512
-0.20626116 0.21906772 0.13976851 0.14440817 -0.039322376 0.13801894 -0.21780245 0.23394522
0.105033845 0.16899005 -0.26185945 0.22192511 -0.052543223 0.2236844 -0.14784907 0.24835745
-0.2958075 -0.29795164 -0.21182388 -0.018852025 0.23297104 0.06645277 0.22289607 -0.06538752
00000000: 13b4 803e 2813 dcbd 5c18 9cbe 2c91 e83d
00000010: f268 2e3e c0a1 e23c 8c66 f63d e005 05be
00000020: e05e d23d e987 983e e769 9c3e f68a 3cbe
00000030: 30f0 a0be bc9c e53d 60ff 4fbd da00 2e3e
00000040: 2036 53be 4a53 603e 7a1f 0f3e bcdf 133e
00000050: 8010 21bd d654 0d3e 9b07 5fbe 568f 6f3e
00000060: fc1b d73d ba0b 2d3e 7112 86be 5640 633e
00000070: 9037 57bd 860d 653e bf65 17be 6a51 7e3e
00000080: 1574 97be 1e8d 98be 5ce8 58be 906f 9abc
00000090: f68f 6e3e 6418 883d de3e 643e e4e9 85bd

bias_hh_l0 f4 [40]
-0.25702384 -0.04350561 0.09994447 -0.10397956 -0.09789269 -0.16163862 -0.07959308 -0.19290832
0.23725215 0.03847009 0.052932143 0.19364938 -0.2341858 -0.005091518 0.1667248 -0.019935995
0.07701108 0.24112627 0.012741119 -0.104198694 -0.24914669 0.2958385 0.31278464 0.2899792
0.11646351 0.06140718 -0.17215541 0.05742842 -0.21689224 0.21059868 -0.070143834 0.16848874
0.05512026 -0.21181563 -0.10720675 0.25666508 0.13462225 -0.0341008 -0.02310282 -0.18017305
00000000: a198 83be f032 32bd b0af cc3d 3cf3 d4bd
00000010: f67b c8bd 9884 25be b201 a3bd c289 45be
00000020: 3af2 723e d092 1d3d 60cf 583d 064c 463e
00000030: 67ce 6fbe c0d6 a6bb e8b9 2a3e d050 a3bc
00000040: fcb7 9d3d cee9 763e 20c0 503c 2066 d5bd
00000050: 4f20 7fbe 2578 973e 4f25 a03e 2778 943e
00000060: 6c84 ee3d 1886 7b3d 8249 30be 103a 6b3d
00000070: 0019 5ebe 2ea7 573e 92a7 8fbd 5088 2c3e
00000080: c8c5 613d 32e6 58be 368f dbbd 9b69 833e
00000090: 6ada 093e 48ad 0bbd 2042 bdbc 497f 38be
