tests/_test_data/step_100.pt (torch_old, 28042 bytes, 4 tensors)

weight_ih_l0 f4 [40, 10]
000000 7e 38 6c be 30 ae 9b bc 74 5a bd bd 46 1f 7e be
       -0.23068425 -0.019003958 -0.09245768 -0.24816617
000010 ee 08 1d be 5b a3 92 3e 68 e3 a8 3d a4 44 21 be
       -0.15335438 0.28640255 0.08246499 -0.1574884
000020 2a bf 6d 3e f2 92 b4 bd f8 89 96 bd 3b ec 9a be
       0.23217455 -0.0881709 -0.07350534 -0.30258355
000030 ac 10 dc 3d 72 9f 3c 3e 06 68 25 3e 01 22 81 3e
       0.107453674 0.18420199 0.16152963 0.25221255
000040 d0 9d 91 3c 3e 19 88 bd c8 3e 8f bd ae d8 71 be
       0.017775446 -0.066454396 -0.069943964 -0.23617813
000050 c4 df 42 be 7b d7 85 3e 1b bb 8d 3e d0 fe ca bc
       -0.19030672 0.2614096 0.27681813 -0.024779707
000060 df fb 47 be 90 bf dd 3d 38 cb 77 be b8 a8 04 be
       -0.19529675 0.10827553 -0.24198616 -0.12954986
000070 bc 6b e7 3d d0 4e d3 3d 67 86 92 be 54 50 a8 3d
       0.112998456 0.10317767 -0.28618166 0.082184464
000080 20 8e 47 bd ab b1 15 be 52 8d 9b be 38 e1 35 be
       -0.048719525 -0.14618556 -0.30381256 -0.17761695
000090 93 ff 18 be 88 7f fe 3d 60 56 6e 3c 73 1b 54 be
       -0.14941244 0.124266684 0.014546961 -0.20713596
0000a0 d2 cd 42 3e d3 b6 99 3e d7 5c 37 be 00 ec 53 bd
       0.19023827 0.30022296 -0.1790651 -0.05173874
0000b0 60 db 86 bd 9a b6 8d bd 9d 2e 94 be 94 af fd 3d
       -0.06584811 -0.06919594 -0.28941813 0.123870045
0000c0 e5 50 80 be 20 fb 94 bd 08 5f 0d 3d 06 4b 64 3e
       -0.25061718 -0.07274461 0.034514457 0.22294244
0000d0 b0 e3 99 3d c8 04 05 bd c9 32 8c 3e 6c 4e d4 3d
       0.07514131 -0.032475263 0.27382496 0.1036652
0000e0 c2 39 69 be ef 22 46 be bf a0 38 be 79 95 1a be
       -0.22775939 -0.19349264 -0.1803007 -0.15096082
0000f0 c5 ff 33 be 55 89 8a 3e 8b 15 63 be 60 72 60 bc
       -0.17578037 0.270579 -0.22176187 -0.013699144
000100 3e 8c 30 be b0 3d b4 3c 54 d7 67 be b8 21 db 3d
       -0.17240998 0.022002071 -0.22640735 0.10699791
000110 7c 92 7d be fe 10 54 be 8c 57 8f be b3 31 30 be
       -0.2476291 -0.20709607 -0.2799648 -0.17206459
000120 78 52 84 bd 56 57 86 be e4 13 81 3d 40 1b f1 3d
       -0.06461042 -0.26238507 0.06302622 0.11772776
000130 15 17 8e be e4 b4 cc bd 33 17 88 3e 47 2b 9b 3e
       -0.27751985 -0.0999544 0.265802 0.30306455
000140 70 07 db 3d 00 7f e6 bc 1c 8d 0e 3e 7e a7 0a 3e
       0.10694778 -0.02813673 0.13921016 0.13540456
000150 40 0b cf 3b 13 dc 91 3e f6 ba 7b be 80 b3 3a 3c
       0.00631848 0.28488216 -0.24583039 0.011395335
000160 00 85 13 bb 68 6c 49 3d ea 87 2a be 69 f5 99 3e
       -0.0022509694 0.04917565 -0.1665341 0.30070046
000170 9f 25 86 3e 3e e6 02 3e 96 5d 80 be 20 89 46 3d
       0.26200578 0.12783143 -0.250714 0.048470616
000180 60 1d 7e 3c 11 d1 90 be 6c 99 a2 3d 13 64 82 be
       0.015509933 -0.28284505 0.07939419 -0.25466976
000190 60 90 65 bc 8a a3 41 3e a2 c2 2b 3e 0a 36 57 3e
       -0.014011472 0.18910041 0.16773465 0.21016708
0001a0 80 5c 18 3c 24 6b a5 3d 58 48 3f 3d 24 f4 83 be
       0.0092993975 0.08077076 0.04669985 -0.25772202
0001b0 0a e2 18 3e f4 77 97 be b3 c5 9e 3e a0 92 2d be
       0.14929977 -0.29583704 0.31010208 -0.16950464
0001c0 60 b8 e5 3c 18 5d 98 be f8 79 4f be 0a ec 7a 3e
       0.028042018 -0.29758525 -0.20261371 0.24504104
0001d0 f4 3c 1c be 0a 3e 4b 3e 31 29 8b be 46 d3 68 3e
       -0.15257627 0.19847885 -0.27179864 0.22736844
0001e0 91 17 9e be 2a 39 89 be d8 5f 9f be d6 36 2c be
       -0.30877355 -0.26801425 -0.3112781 -0.16817793
0001f0 aa a5 1e be 68 e1 5c be b0 b8 38 3e 80 8d 38 bb
       -0.15492883 -0.2157036 0.18039203 -0.0028160512
000200 ee b7 6d be 3f ed 82 3e b6 68 0c 3e aa 08 7c 3e
       -0.23214695 0.2557163 0.13711819 0.2461268
000210 92 d1 3f 3e 16 bf 70 3e 08 07 85 be 6a 19 3e 3e
       0.18732288 0.23510394 -0.25981927 0.18564382
000220 b8 e9 6d bd b9 71 8d 3e 02 76 56 3e 26 69 13 be
       -0.05808422 0.27625826 0.20943454 -0.1439558
000230 9e f0 0d 3e 80 78 f7 3c ce bb 4b 3e 12 5e 52 be
       0.1386132 0.030208826 0.1989586 -0.20543697
000240 db 7f 8c 3e e2 cc e2 bd 78 cb 0e bd da 92 01 3e
       0.27441296 -0.110742345 -0.03486201 0.12653676
000250 64 35 8d be 1d 1d 09 be a0 ff 96 3c 4e 2c c3 bd
       -0.27579796 -0.13390012 0.018432438 -0.09529935
000260 f0 43 ce 3c 03 c7 87 3e 50 4a 32 3e 2e 89 81 be
       0.02517888 0.2651902 0.1741116 -0.25299972
000270 a0 be f7 3d e0 8d ef bd e8 dc 09 3d c0 1c 8e be
       0.12096906 -0.116969824 0.03365794 -0.2775631
000280 a6 e6 63 be 40 1d 9c be 00 82 11 3d 98 d7 45 be
       -0.22255954 -0.30491066 0.03552437 -0.19320524
000290 7e 2d 66 3e de 57 65 3e 28 a8 0f 3d 16 af 08 be
       0.22478291 0.223968 0.035072476 -0.1334804
0002a0 1a 16 2a be 3b 77 33 be 03 a5 9b 3e 9f 6d 36 be
       -0.16609994 -0.17525952 0.3039933 -0.17815255
0002b0 a7 b8 32 be ef 50 9d 3e 45 b7 1d be f8 11 e2 3d
       -0.17453252 0.3072581 -0.15401943 0.110385835
0002c0 e0 a7 c3 bc 0f 7b 37 be 73 a0 98 3e 1a 58 5a 3e
       -0.02388376 -0.17918037 0.29809913 0.2132267
0002d0 c0 a4 6a be 57 36 0c be ae 45 4a 3e a6 b4 4a be
       -0.2291441 -0.13692604 0.19753143 -0.19795474
0002e0 f9 85 6b be ad 1d 8e 3e 88 51 33 be 3a ee 2c 3e
       -0.23000325 0.27757016 -0.1751157 0.16887751
0002f0 48 5b 8a be 58 37 bb 3d 94 79 84 be d0 d4 ca bd
       -0.27022767 0.09141415 -0.25874007 -0.09903872
000300 20 7f e1 bd 70 61 b1 3d fe 35 29 3e 20 b5 8c be
       -0.11010575 0.08661163 0.16524503 -0.27481937
000310 92 89 e6 bd ed 92 8a 3e 3b 70 11 be 54 b7 71 be
       -0.11256708 0.2706522 -0.14202969 -0.2360509
000320 de 30 33 3e 3d b8 89 be 60 4f d6 3c 8c 65 b1 bd
       0.1749911 -0.26898375 0.026160896 -0.08661947
000330 50 33 ac 3c ae 8f 8c bd 50 fd 65 bd 40 2f c3 bb
       0.021020561 -0.06863342 -0.05614978 -0.0059565604
000340 fd 92 43 be df 87 9c 3e 3c 1a 88 3d 7c 66 bd 3d
       -0.1909904 0.3057241 0.06645629 0.09248063
000350 e1 8c 39 be 93 be 98 3e a1 0d 9e 3e 53 8e 1b be
       -0.18120147 0.29832897 0.30869773 -0.15191011
000360 00 38 be 3b 6e a0 45 3e ee 4e 19 be e4 71 fd 3d
       0.0058050156 0.1929948 -0.14971516 0.123752385
000370 3d df 43 be 8f f7 81 be 89 2b 8f 3e ca 42 fc bd
       -0.19128127 -0.25384185 0.27962902 -0.123174265
000380 e0 1a f9 3c e4 c1 0e be d4 3c 23 3e 98 e9 85 be
       0.030408323 -0.13941151 0.15941173 -0.2615478
000390 c1 22 86 3e 19 7c 93 3e d6 fa 78 3e 00 e1 fa 3b
       0.2619839 0.28805616 0.24314436 0.0076562166
0003a0 77 d5 82 3e 34 06 9e 3d af 8d 92 3e 30 d7 2b bd
       0.25553486 0.07716027 0.2862372 -0.041953266
0003b0 be bb 87 bd a5 7c 9d 3e 3f 18 3d be 76 97 59 3e
       -0.06627606 0.3075916 -0.1846628 0.21249184
0003c0 26 db 36 3e 68 a2 7d 3d 9c 96 db 3d 18 8e 6b bd
       0.17857036 0.06192246 0.10722086 -0.057508558
0003d0 bd dd 10 be a0 2d 3c bd 32 b9 bb bd b5 30 1f be
       -0.14147086 -0.04594195 -0.091661826 -0.15545924
0003e0 61 df 40 be 0e ae a9 bd 10 7d ba 3d 14 d5 cf 3d
       -0.18835212 -0.082851514 0.09105885 0.10148063
0003f0 58 0d ba 3d 78 46 7d be 8d ef 84 3e c4 67 93 be
       0.09084576 -0.24733913 0.25964013 -0.28790104

weight_hh_l0 f4 [40, 10]
000000 c0 37 20 3c 56 16 89 be dd 75 a0 3e 74 97 8b be
       0.009778917 -0.26774853 0.31339923 -0.27263987
000010 af 81 24 be e7 cb 92 3e 6c af 67 be 78 26 6b be
       -0.16065095 0.2867119 -0.22625512 -0.22963893
000020 00 d7 cc ba a0 73 00 bc c8 8c 09 be fa de 4b 3e
       -0.001562804 -0.007840067 -0.1343261 0.19909278
000030 aa 86 1c be 10 1a 04 bd 9e 39 6c 3e 26 2f 72 be
       -0.15285745 -0.032251418 0.23068854 -0.23650798
000040 09 0c 97 3e 83 03 90 be 8a 06 47 be 52 db 60 3e
       0.2950137 -0.2812768 -0.19436088 0.21958664
000050 4d 82 90 3e 8c 9a 89 be 97 d7 33 be 48 87 22 3e
       0.28224412 -0.26875722 -0.1756271 0.15871918
000060 39 e6 1c be 18 b4 df 3d a2 54 0c 3e 60 8d be 3d
       -0.15322198 0.10923022 0.1370416 0.09304309
000070 f8 05 c4 bd 68 cf 7c bd 30 0c 90 3d c5 e0 7d be
       -0.09571451 -0.061721236 0.070335746 -0.24792774
000080 e0 ec 65 3c 50 e7 d7 3d 60 62 23 bd c1 3a 99 3e
       0.014033526 0.10542166 -0.03988874 0.29927638
000090 0b db 5c be 38 51 d0 3d 08 14 16 be 72 3b 6a be
       -0.21567933 0.10171741 -0.14656079 -0.22874239
0000a0 4c 8d cf bd c6 36 73 be c0 47 00 3e c0 76 81 be
       -0.10134372 -0.23751363 0.1252737 -0.25285912
0000b0 72 53 7a be 18 cb cb 3d aa 42 c8 bd 16 27 69 3e
       -0.24445894 0.099508464 -0.0977834 0.22768816
0000c0 68 e8 5b 3d 40 c4 17 bd 59 6e 96 3e b8 c0 88 3d
       0.053688437 -0.037052393 0.29381064 0.06677383
0000d0 7e 8a ab bd 43 35 92 3e bc ff 27 3e 9f fd 4f be
       -0.08376025 0.2855626 0.16406149 -0.20311593
0000e0 1c 47 cb bd 7a c4 98 be e9 62 8d be 0e 64 46 be
       -0.099256724 -0.298374 -0.27614525 -0.19374105
0000f0 bd 1d 9c be 40 d2 73 bc 60 1a a4 bc ec c8 e5 3d
       -0.30491439 -0.0148816705 -0.020032108 0.112199634
000100 60 42 3f 3d 0b 61 9e be c1 a9 5e be 5a 03 9e be
       0.04669416 -0.30933413 -0.21744443 -0.30861932
000110 fa e3 d7 bd 2e a7 79 3e 4f 5a 7c be 98 0b 10 bd
       -0.1054153 0.2438018 -0.24643825 -0.035167307
000120 56 8e 76 3e c4 b7 83 be 96 fc 78 3e bb 20 8f 3e
       0.24077734 -0.2572614 0.24315104 0.2795466
000130 a0 35 76 bc 11 e1 8a 3e b0 7e 89 3c be f4 76 3e
       -0.015027434 0.27124837 0.016784042 0.24116799
000140 e8 64 fc 3d ff 2c 93 be 00 0a 6f 3d 46 4f 86 be
       0.12323934 -0.28745267 0.058359146 -0.26232356
000150 58 56 2f 3e c6 4d 77 3e 76 09 13 be fa 1b 61 3e
       0.17122781 0.24150762 -0.14359078 0.21983328
000160 e5 97 94 3e b0 2e 60 bd c7 f6 86 3e b2 f5 6b 3e
       0.29022136 -0.054732025 0.2636015 0.23042944
000170 02 e2 dc bd fd 66 9d 3e 18 0f bd 3d 7f b4 80 be
       -0.10785295 0.30742636 0.092313945 -0.25137708
000180 a0 29 67 3c b8 dd ae 3d ff 79 9a be ae 77 5d 3e
       0.014109045 0.08538383 -0.301712 0.21627685
000190 a0 37 c1 bc b2 d9 60 be 32 10 dc bd 6d 48 78 be
       -0.023586094 -0.21958044 -0.107452765 -0.24246378
0001a0 cc 39 ec 3d b2 8c 50 3e bb 43 9f 3e 6f 62 3f be
       0.115344614 0.20366171 0.31106362 -0.18689893
0001b0 d4 05 12 be 62 f0 93 be 8d c5 83 3e 94 d0 15 be
       -0.14260036 -0.28894335 0.25736657 -0.14630347
0001c0 86 2d 45 be 96 63 43 3e 66 fa 5a 3e 88 cb b7 bd
       -0.19255647 0.19080958 0.21384582 -0.089743674
0001d0 10 2b 22 3e c4 84 92 bd 48 3e 87 be 00 38 71 bc
       0.1583674 -0.07154229 -0.26414704 -0.014722824
0001e0 aa a2 80 be c0 2a 9e bd 88 bc 23 3e 34 1e 84 be
       -0.25124103 -0.07722998 0.15989888 -0.25804293
0001f0 f8 1d cb 3d 00 a0 03 3b b5 4b 8e 3e 35 1e 90 3e
       0.099178255 0.002008438 0.27792135 0.28148046
000200 ba 06 5f 3e 37 20 89 3e 4e fb 94 be 00 7d 8f bb
       0.2177991 0.2678239 -0.2909798 -0.004378915
000210 00 a4 7e ba 1d ec 86 3e 34 d3 95 3d 78 92 29 3d
       -0.0009713769 0.26352015 0.073156744 0.04139945
000220 6d 43 80 3e c8 a4 fc bd 88 4b 55 3d 80 20 4f 3c
       0.25051442 -0.12336117 0.052073985 0.012642026
000230 fb 1b 08 be c0 9a d3 3b 20 2f d5 bd a2 1a 8d be
       -0.13291924 0.0064576566 -0.10409379 -0.27559382
000240 60 72 36 be 90 d9 48 bd 3d 11 84 3e 9b 11 96 3e
       -0.17817068 -0.04903561 0.25794402 0.29310307
000250 ca 5f 83 be 88 16 85 bd de 2f 51 be cc 5b 21 3e
       -0.2565902 -0.06498438 -0.20428416 0.15757674
000260 be 76 ce bd 0c 4e 85 be 84 83 a1 3d ac f7 7e be
       -0.10081242 -0.26036108 0.07886413 -0.24899167
000270 47 25 3b be fa 61 16 3e be 8e 87 be e0 a3 91 bc
       -0.18275939 0.14685813 -0.2647609 -0.017778337
000280 f7 de 77 be d7 d0 8a be ef 20 87 3e f8 82 ed bd
       -0.24206148 -0.27112457 0.26392314 -0.11597246
000290 36 3f 4a be e8 5d 2c 3e 0a ff 20 3e d2 02 49 3e
       -0.19750676 0.16832697 0.1572229 0.19629982
0002a0 08 a3 9f be bc af 8f 3d e0 19 21 bd 52 10 6c be
       -0.3117907 0.070159405 -0.039331317 -0.230531
0002b0 4c 18 f3 3d 62 77 56 3e 20 80 64 3c 64 16 0a 3e
       0.11869869 0.20943978 0.013946563 0.13485104
0002c0 d8 80 99 be 95 3d 3c be 17 19 96 3e 10 02 7e be
       -0.29981112 -0.18382867 0.29316017 -0.24805474
0002d0 65 a2 96 be d6 16 cf bd e0 56 d1 bc f8 51 46 bd
       -0.29420772 -0.101117775 -0.02555412 -0.048418015
0002e0 3e 1d 0b 3e 26 c5 de bd 88 d8 46 bd a6 38 41 3e
       0.13585374 -0.10877447 -0.048546344 0.18869266
0002f0 1e f7 38 3e f4 1f cb 3d 3d 21 8d 3e 1a 7d d7 bd
       0.18063018 0.09918204 0.2756442 -0.10521908
000300 4a 24 7e 3e e4 3f a6 3d 56 8a 55 3e d6 6c 55 be
       0.2481853 0.08117655 0.20853552 -0.20842299
000310 b8 42 03 bd a6 f9 81 be 9a 6a 05 3e a6 b2 72 3e
       -0.03204605 -0.2538578 0.13028947 0.23700961
000320 34 ec fe 3d 6c 15 6b be 0f 59 53 be 90 ff fa bd
       0.12447396 -0.2295739 -0.20639442 -0.12255776
000330 74 f6 80 be 3f be 03 be 97 7a 84 3e 02 65 9c be
       -0.2518803 -0.12865542 0.2587478 -0.30545813
000340 00 10 6f 3d b4 cb cd 3d 60 d2 dc 3c a3 d3 8c 3e
       0.05836487 0.10048619 0.026955783 0.27505216
000350 00 4e 6d 3b 40 ea 59 bd 40 23 90 3d ca 58 6c be
       0.0036209822 -0.053201914 0.070379734 -0.23080745
000360 52 32 07 3e 5c 52 fb bd a0 1c 1c bd a2 76 32 3e
       0.1320279 -0.12271568 -0.038113236 0.17428067
000370 f0 f3 fc bc 90 e6 9b 3c 3e 7a 83 be 82 ab 26 3e
       -0.030878037 0.01903084 -0.256792 0.16276363
000380 18 67 89 3d 33 0d 5c be d0 de 58 be 91 12 39 be
       0.06709117 -0.2148941 -0.21178746 -0.18073489
000390 3e 3c 73 be 15 e9 96 3e c8 5c 81 3d 66 a1 7f be
       -0.2375345 0.29474702 0.06316525 -0.24963912
0003a0 80 8a 3c 3b 50 fe cb 3d 3e 91 05 be b9 e9 89 be
       0.0028769076 0.09960616 -0.13043687 -0.2693613
0003b0 f7 8b 8d be 7b 07 8c 3e ca 05 02 be 8e 59 26 3e
       -0.27645847 0.27349457 -0.12697521 0.162451
0003c0 26 34 9f bd 3a 6d 7c 3e 26 4c 57 be b2 31 7a 3e
       -0.077736184 0.24651042 -0.21025142 0.2443302
0003d0 78 84 9b 3d 41 8c 80 3e 00 78 a6 3d 20 78 9f 3c
       0.07593626 0.25107005 0.08128357 0.01946646
0003e0 ac b3 0d 3e 88 b0 22 3d 68 78 5a 3d fc dd 19 3e
       0.1383807 0.039719135 0.053337485 0.15026087
0003f0 27 d1 59 be b4 3e fd bd 60 37 e7 bd 50 89 88 be
       -0.21271192 -0.12365475 -0.11289859 -0.2666726

bias_ih_l0 f4 [40]
000000 2a f5 51 be 4a e5 6b 3e 4a 88 79 3e 40 d4 c4 bb
       -0.20503679 0.23036686 0.24368396 -0.0060067475
000010 e6 dd 61 3e 07 3c 28 be ac 71 31 3e ed 0d 96 3e
       0.22057304 -0.16429149 0.17328519 0.293075
000020 bc 51 4c be 4a 43 4c 3e d2 2e 04 3e d6 d0 2f be
       -0.19953054 0.19947544 0.12908486 -0.17169508
000030 df 49 82 be 43 2b 9a be fa 22 6d 3e 08 7a a9 bd
       -0.25446984 -0.3011113 0.23157874 -0.08275229
000040 00 7d 67 bd 00 20 6c 3b dd 38 87 3e a2 d4 21 be
       -0.056515694 0.0036029816 0.2641057 -0.15803769
000050 65 58 39 be ec 27 39 be c0 be 54 3c e4 fc 34 be
       -0.18100126 -0.18081635 0.0129849315 -0.17674595
000060 65 d7 10 be 0d 52 99 be e0 c9 22 3c fe f2 79 3e
       -0.14144666 -0.29945412 0.009935826 0.244091
000070 40 ce 3c bc 4e cf 58 3e 78 72 2e 3e 44 7a 35 be
       -0.011523783 0.2117283 0.17035854 -0.17722422
000080 7e 3f f6 bd 7c dc e7 bd 1b b5 95 3e 50 be f3 3d
       -0.12023829 -0.11321351 0.29239735 0.119015336
000090 98 ec e5 3d d0 7f 0d be 92 c6 59 3e 70 19 7e 3d
       0.11226767 -0.13818288 0.21267155 0.062035978

bias_hh_l0 f4 [40]
000000 5e 5d 1f 3e 5a e3 7b 3e d9 84 84 3e 96 72 77 be
       0.1556296 0.24598446 0.25882605 -0.24164805
000010 7a 95 65 3e 0a 9b 27 3e c2 da c6 bd 00 cb d4 bc
       0.22420302 0.16367736 -0.097096935 -0.025975704
000020 12 02 7c be 52 2f 53 3e 12 be a4 bd 9a b7 ad bd
       -0.24610165 0.2062352 -0.080440655 -0.08482285
000030 4c b3 84 bd 10 41 ad bd 3e b7 47 3e 18 a4 e7 bd
       -0.06479511 -0.08459675 0.19503495 -0.11310595
000040 e2 8f 3e be 3c 6f a2 3d 58 18 34 bd f0 06 a9 3c
       -0.18609574 0.079313725 -0.04396853 0.02063319
000050 d0 1b c1 3c 61 2a 9f be b2 69 8e be 12 9f 77 3e
       0.023572832 -0.3108702 -0.27815014 0.24181774
000060 f2 26 4d 3e eb a9 6f be 38 f7 11 3d fb e7 2a be
       0.20034388 -0.23404662 0.035636157 -0.16690056
000070 d9 d2 83 be 92 ba 6d 3e c8 a0 02 bd 30 12 2b 3e
       -0.25746801 0.23215702 -0.031891614 0.16706157
000080 f4 ec 91 3d 00 c1 55 bd e0 3b e0 3d 18 95 77 be
       0.07125273 -0.052186012 0.1094892 -0.24177969
000090 62 78 9d bd ac f7 d2 3d 32 a8 29 be 78 49 d5 3d
       -0.07688977 0.10301146 -0.16568068 0.10414404
