tests/_test_data/step_100.pt (torch_old, 28018 bytes, 4 tensors)

weight_ih_l0 f4 [40, 10]
00000000: a4a5 7fbe 3b2b 89be 9e32 103e f515 853e
00000010: 35a8 883e daee c1bd 68ce 77bd e84d 3b3e
00000020: 1667 663e 80fd b23c c2b4 d0bd 0078 d139
00000030: e888 8fbe f460 923d a8f0 3b3d 70c3 f4bc
00000040: 0aeb b8bd 2996 9bbe 6aa3 7a3e dafc ffbd
00000050: 3816 e23d 40ad 1ebd 4020 b9bc f81c f63d
00000060: 98a9 29bd 3912 19be 8491 d63d 0883 2f3e
00000070: 4ee2 a0be 63d2 0abe 38e8 14bd 4c91 333e
00000080: 1801 c13d 7969 8d3e f0d1 d1bd a819 4d3d
00000090: 01b7 99be c0b7 313c d469 ed3d d8a2 91be
000000a0: ec8f 9abe 60ff 973c 906a 96bd 7461 99be
000000b0: 6034 95be d0e9 c93d 92e8 1dbe fc1c 56be
000000c0: 6449 1d3e bb54 82be cf53 51be 6e00 e0bd
000000d0: 887d 0b3d 080b 803d c05f f53b 738e 61be
000000e0: e465 843d 40de e7bc 5e6d e7bd 6466 6abe
000000f0: 28bf 9b3d f0a9 46bd 1b27 91be d7f9 3bbe
00000100: 58d0 013e a6b8 0e3e b0ff d03c 6cdf c5bd
00000110: d3d4 96be c618 cfbd de1f 363e 9317 85be
00000120: bd18 8e3e 4373 803e d320 8abe fb1e 9e3e
00000130: bbc4 81be 6639 74be 2a45 76be 102b fa3d
00000140: e66f 58be 754f 893e 32f7 1bbe ac04 57be
00000150: 8131 8f3e 4d12 a13e a431 f3bd c0b1 173c
00000160: f122 66be c0e1 8cbb 1cc9 153e 238a 953e
00000170: 9409 1ebe 68f8 cf3d a47b 0d3e 0099 00be
00000180: 28e1 aebd 85f1 943e 561a 6f3e f26b 58be
00000190: 0333 87be d00d b1bc cd29 19be fc81 3fbe
000001a0: 00de 0f3c b6a0 013e 5f13 2bbe 1a57 e8bd
000001b0: 1e5c 49be 9e03 9ebe 9616 423e d685 233e
000001c0: ba1d 53be 309f 81be 370d 893e 6053 0bbc
000001d0: a861 2c3e 8cad 213e d072 3ebe b4c6 903d
000001e0: 9934 28be abde 13be 9930 933e 0061 9bbb
000001f0: 0cd3 83be 94bc d2bd cd33 97be e8e9 09bd
00000200: 08b9 57bd 7006 fe3d fa74 1bbe 8c92 1f3e
00000210: 50c7 ad3d e97b 98be 2aeb 663e f21f 493e
00000220: b497 263e 58eb 74bd e0f3 233e c019 50bc
00000230: 4498 efbd 4269 7e3e 3e61 52be 4c40 f03d
00000240: 8b42 07be 08b9 0d3e d044 353e 4022 573c
00000250: 7057 f73d f327 803e 8801 803d a038 8abd
00000260: d24a 3f3e 2a08 75be c9c2 02be 3ae2 4d3e
00000270: 8072 ae3d d0de cd3c e0da dd3c e899 73be
00000280: f69b 443e e1df 9e3e c441 bfbd 2052 debc
00000290: 3867 55bd 51f0 943e dee2 4b3e 34f7 c9bd
000002a0: 409d 383e f050 ab3d f097 2bbd 406f 63bc
000002b0: b091 5fbe f0df d7bc 1169 26be 127a 633e
000002c0: 3cbe 99be e83d 073e 9a72 3ebe 58b2 d73d
000002d0: c0af a2bc 4872 123e 88cd 01bd 4c94 88be
000002e0: 4023 e23b fd23 12be 68c1 853d c822 42be
000002f0: 406e f43b ac14 47be 5250 93be 821d 793e
00000300: 407a 473c d231 7b3e 9acd 3f3e a108 a1be
00000310: f9f5 8f3e 5238 81be 6b48 8c3e 6250 533e
00000320: fc95 8fbe 2e7b b2bd 5051 993c a0e5 5cbe
00000330: 601d b13c d89f a0be 35ce 64be 79f6 83be
00000340: 9c02 06be 76f7 9dbd cbb1 30be d8b3 e9bd
00000350: 8010 4f3b 8d85 863e 960d 54be aeba 4e3e
00000360: cd0d 95be 3f09 9b3e dafa f5bd 40b8 3d3d
00000370: 99be 9e3e 8098 6a3c 901c d03c 0374 993e
00000380: 288e 4abe 68c0 073d 4b46 873e 0e7d 92bd
00000390: f22e 723e c405 9a3d a0c8 ea3d 1f31 0dbe
000003a0: 2ec3 463e c817 a5bd 50af 103e 42ac f3bd
000003b0: 47b2 00be 42f3 2ebe 44d6 fb3d da2f 523e
000003c0: 4cb6 113e 1a6e 4dbe 90f4 75be 6d56 89be
000003d0: 4c8c 373e c02d c6bc deac 58be e699 9dbd
000003e0: c8d5 75be 9cdb 89be 702b 90bc af65 943e
000003f0: ae43 b5bd ae7a 0b3e 46a5 e9bd 0e21 213e
-0.2496553 -0.26790795 0.14081809 0.25993314 0.26690832 -0.094693854 -0.06049958 0.18291438
0.22500262 0.021849394 -0.10190727 0.00039952993 -0.2803414 0.071473986 0.045883805 -0.029878348
-0.09029205 -0.30388 0.244764 -0.124993995 0.11039394 -0.038739443 -0.022598386 0.12017244
-0.041421503 -0.14948358 0.10476974 0.17139828 -0.31422657 -0.13556819 -0.036354274 0.17535895
0.09424037 0.27619532 -0.102451205 0.050073296 -0.30022433 0.010847032 0.11592451 -0.28444552
-0.3018793 0.01855439 -0.07344544 -0.29957163 -0.2914152 0.09859049 -0.1542075 -0.20909494
0.15360028 -0.2545527 -0.20442127 -0.10937582 0.034055263 0.06252104 0.007488221 -0.22026996
0.064647466 -0.02830422 -0.11300157 -0.22890621 0.076048195 -0.04850191 -0.28350148 -0.18357025
0.12677133 0.13937625 0.025512546 -0.09661755 -0.29459247 -0.10112147 0.17785594 -0.25994548
0.2775325 0.25087938 -0.26978168 0.3088301 -0.25345406 -0.23850021 -0.24049821 0.12215245
-0.21136436 0.26818433 -0.15231016 -0.20997876 0.27967456 0.31459275 -0.118747026 0.0092586875
-0.22474267 -0.0042993724 0.14627498 0.29206952 -0.15433341 0.101548016 0.13816696 -0.12558365
-0.08539039 0.29090515 0.2334989 -0.21134928 -0.26406106 -0.021613032 -0.14957352 -0.18701929
0.008780956 0.12658963 -0.16706608 -0.11344738 -0.19664046 -0.30862135 0.18953928 0.15969023
-0.20616809 -0.25316763 0.26767895 -0.008503765 0.16834128 0.15788859 -0.18598485 0.070691496
-0.16426314 -0.1444041 0.28748015 -0.004741788 -0.25746953 -0.10289875 -0.29531708 -0.033670336
-0.052666694 0.124035716 -0.15181342 0.15583247 0.084852815 -0.29782036 0.22550645 0.19641092
0.16268808 -0.059794754 0.16011 -0.012701452 -0.11698964 0.2484484 -0.20544907 0.11731014
-0.13208978 0.13840115 0.17702031 0.013130724 0.12077224 0.2503048 0.06250292 -0.067490816
0.18680885 -0.23928896 -0.12769617 0.2010583 0.08517933 0.02513066 0.027081907 -0.2378918
0.1920012 0.3103018 -0.09338716 -0.02713877 -0.05210039 0.29089597 0.19910762 -0.098616034
0.18028736 0.08365047 -0.041892946 -0.013881505 -0.21832919 -0.026351899 -0.16251017 0.22214535
-0.3002795 0.13207209 -0.18598405 0.10532063 -0.019859195 0.14301407 -0.03169015 -0.26675642
0.006901175 -0.14271541 0.0653103 -0.1895858 0.007459432 -0.1944148 -0.28772217 0.24327663
0.012175143 0.24530724 0.18730775 -0.31451896 0.2811735 -0.2523828 0.27399 0.20636132
-0.28044116 -0.08714901 0.01871553 -0.2157197 0.021620452 -0.3137195 -0.22344287 -0.2577398
-0.13086933 -0.07713215 -0.17255323 -0.114112556 0.0031595528 0.26273766 -0.20708308 0.201884
-0.29112092 0.30280492 -0.12010737 0.046318293 0.3100479 0.014318585 0.025404245 0.29971322
-0.19780791 0.033142477 0.26420817 -0.071527585 0.2365072 0.07520631 0.114640474 -0.1378827
0.19410393 -0.080611765 0.14129376 -0.1189809 -0.12568007 -0.17084983 0.12296727 0.20526066
0.14229697 -0.20061532 -0.24019074 -0.2682375 0.17924613 -0.024191737 -0.21159694 -0.076953694
-0.24007332 -0.2692536 -0.017598838 0.28983828 -0.088507995 0.13621017 -0.114084765 0.15735266

weight_hh_l0 f4 [40, 10]
00000000: 00cb 85bc c84a 86bd 1a86 48be bc3b a53d
00000010: bfa0 863e 6647 033e 9a31 4b3e fea9 0fbe
00000020: 9d5a 813e 14c8 f83d 74e7 a43d da2a 77be
00000030: 00f1 5dbe d8d3 48be c85b 603d 984c 3d3d
00000040: 7577 16be d8da 65be 8429 1e3e 4077 e1bc
00000050: e5b4 843e 068c 2b3e 243e 88bd c813 003e
00000060: 5027 68be adbc 3cbe c58e 82be 1e30 113e
00000070: 84f1 b03d 100e e5bc 7a6c 583e 05a0 93be
00000080: 3d14 78be 6bbc 1dbe 4826 0a3d 28e6 9fbe
00000090: 2ef0 593e 3617 91be 8510 903e e79e 34be
000000a0: 4ee9 423e 5920 94be 130e 9e3e 305e d33c
000000b0: 98fb f33d e200 553e e8c4 813d 2843 c43d
000000c0: 54cf 9e3d 0083 5a3c 304e 90bc 010c 8d3e
000000d0: 68c7 e33d 1c3a 94bd 2039 da3c 446a cabd
000000e0: 6faf 54be 0bae 24be e3ae 993e c021 d43d
000000f0: 006a e0bb 5189 1bbe 4cb7 e8bd 7e69 5d3e
00000100: d0f5 b93d f3d6 853e d023 62bd 76a8 b3bd
00000110: da81 6f3e a0f5 253c 9667 97be fa41 363e
00000120: 6b50 883e 78f7 12bd 906f 23be 80fc 65bb
00000130: 1342 01be 2d64 2ebe f06f 5d3d 8068 ff3c
00000140: 875b 80be c014 b13d ec15 84be 814d 49be
00000150: ca7b 4dbe f670 96be 6e10 583e 4455 13be
00000160: 1b1c 8e3e b299 87be 000a 813a dcaa 8abd
00000170: 9406 90be 4e3b 82be 2862 45bd 003b e13c
00000180: b259 073e 0f95 4cbe e6af 583e 7859 84be
00000190: ef4c 883e fa46 723e 3426 063e cb80 913e
000001a0: b593 73be df74 25be 7534 913e c082 0c3e
000001b0: 903a 2b3e 80e0 00bc caae 4b3e 90ab ae3c
000001c0: cf4d 803e 3763 87be 75e5 95be 90f9 c8bd
000001d0: 90b2 b03c 42d8 203e 8e96 283e 8ea2 e0bd
000001e0: cb03 9e3e c8b3 f33d bfe0 34be d6a0 81be
000001f0: 11df 2fbe aa4a 4b3e 90a6 89bd 0423 18be
00000200: d086 193d 876e 9e3e 12f7 113e f9bc 22be
00000210: 6a69 9dbe d25f afbd ba96 613e e452 eebd
00000220: e053 efbc 300e 3fbe aa45 2dbe 3f04 89be
00000230: 16b6 0d3e f2be 97be 3dbb a1be 0693 523e
00000240: 78db 5d3d 0dd7 5fbe b865 973d a0a4 2b3e
00000250: a00c 183d 48f8 8bbd a29b 623e 4b9a 973e
00000260: c06b c93d 1a45 c5bd f4f9 4dbe cdc9 44be
00000270: df2b 943e d81d 6d3d 87c4 1ebe 4ef2 7c3e
00000280: 8219 89be 604c de3d 6001 403c bae1 36be
00000290: 4832 16bd 587a c53d 4079 623d 9e09 473e
000002a0: ad8b 9c3e 18b1 2dbd d65f 573e cace fbbd
000002b0: 0c3f 19be c8f6 cfbd c3ba 963e 4ef5 89be
000002c0: ca4e 3d3e a08e 253e 74f0 ac3d 0ce9 8cbe
000002d0: 3edc 4a3e 99ae 923e f0ec 7dbd 404b 1b3c
000002e0: be27 653e 3276 7e3e 12a1 86be 7b9a 25be
000002f0: dba7 0cbe ece2 333e 2093 68be d214 4b3e
00000300: 08ce 783d 9c6d 223e 5046 e0bd 8027 873c
00000310: 6ca7 213e 4880 173d 1bf2 853e 6097 5dbd
00000320: d476 d93d 030b 50be 80f8 2fbd cb1c 64be
00000330: c088 cd3b 0233 713e 49ae 62be c879 5cbd
00000340: a682 7d3e d0b9 b9bc 39c4 a13e cd85 833e
00000350: c0a0 acbc 1622 623e b8ae 593d fe10 15be
00000360: 002c b83b a748 24be 5836 c23d 6bab 7abe
00000370: 614a 3cbe 5012 f2bc f006 c1bc e0a8 e2bc
00000380: b8a2 3e3d 34f9 a83d c391 94be 9956 94be
00000390: 500f 0cbd 9e21 5bbe 8e7f 61be e031 38bd
000003a0: bc61 093e 60e7 533d 0023 f1bc 1289 88bd
000003b0: 5212 2e3e 27c6 853e 444b 223e 54b7 253e
000003c0: 50e3 74bd 60a7 a2bc 8f97 91be d6a1 6f3e
000003d0: 06f2 4a3e f631 5b3e 09f2 853e 71cb 9c3e
000003e0: e2c5 543e 9ee8 5bbe ffe5 0fbe 0e9c 413e
000003f0: 69a1 853e 97ee a03e 03cd 41be caca 393e
-0.01633215 -0.06557232 -0.19582406 0.08068034 0.26294515 0.12820205 0.1984314 -0.1402969
0.25264445 0.12147537 0.08051959 -0.2413744 -0.21673965 -0.19612062 0.05477503 0.046215624
-0.14694007 -0.22446764 0.15445524 -0.027522683 0.25919262 0.16752633 -0.066524774 0.12507546
-0.22671247 -0.18431349 -0.2549955 0.14178512 0.086398154 -0.027960807 0.2113513 -0.28833023
-0.2422647 -0.15403907 0.033727914 -0.31230283 0.21283028 -0.2833802 0.28137603 -0.17638741
0.19034311 -0.2893093 0.30870113 0.025801748 0.11913222 0.20801118 0.06336385 0.095831215
0.077543885 0.013336897 -0.017615408 0.2754822 0.11122018 -0.07237646 0.026638567 -0.0988355
-0.20770048 -0.16082017 0.3001624 0.10358 -0.0068485737 -0.15189101 -0.11363086 0.21622273
0.09080088 0.26140556 -0.055209935 -0.08772366 0.23389378 0.010129362 -0.29571217 0.17798606
0.26623854 -0.035880536 -0.15960526 -0.0035093129 -0.12622862 -0.17030402 0.05406183 0.03117776
-0.2506983 0.08646536 -0.25797975 -0.19658472 -0.20066753 -0.29383057 0.21100017 -0.14387995
0.27755818 -0.26484448 0.0009844899 -0.0677087 -0.2813002 -0.2543587 -0.048189312 0.027493954
0.1321781 -0.19978736 0.2116085 -0.2584951 0.26621196 0.23659888 0.13100511 0.28418574
-0.23786815 -0.16157864 0.28360334 0.13721752 0.16721559 -0.007866025 0.19890895 0.021322042
0.25059363 -0.26442882 -0.29276624 -0.09813225 0.02156952 0.15707496 0.16463682 -0.10968505
0.3086227 0.11899525 -0.17663859 -0.2531802 -0.17174937 0.19852701 -0.067212224 -0.14857107
0.037482083 0.309437 0.14254406 -0.158924 -0.30744487 -0.08563198 0.22030154 -0.11636904
-0.0292148 -0.18657756 -0.16921106 -0.26761052 0.13838992 -0.29637867 -0.31588164 0.20563897
0.05416438 -0.21859379 0.07392448 0.16762018 0.037121415 -0.06834465 0.22129682 0.29609904
0.09835005 -0.09632321 -0.20114881 -0.19217606 0.2893972 0.05788979 -0.15504657 0.24701807
-0.26777273 0.10854411 0.011719078 -0.17859545 -0.036669046 0.09642476 0.055291414 0.19437262
0.30575314 -0.042405218 0.21032652 -0.12295301 -0.14965457 -0.10154492 0.29439363 -0.26944965
0.18487087 0.16167688 0.084443 -0.2752155 0.19810578 0.28648832 -0.06199354 0.00947839
0.22378442 0.24849775 -0.26294762 -0.16172211 -0.13735907 0.17567033 -0.22712374 0.19832161
0.06074336 0.15862125 -0.10950911 0.016498327 0.15786523 0.036987573 0.26161274 -0.05409944
0.10618368 -0.203167 -0.042961597 -0.22276609 0.0062724054 0.23554614 -0.22136797 -0.053827077
0.2475687 -0.02267161 0.31595019 0.2568802 -0.021072745 0.22083315 0.05314514 -0.14557263
0.0056204796 -0.1604334 0.094830215 -0.24479453 -0.18387748 -0.029549748 -0.023562878 -0.027668417
0.0465419 0.08250657 -0.29017457 -0.2897232 -0.03419429 -0.21399543 -0.22021315 -0.04496944
0.13416189 0.05173433 -0.029435635 -0.06666769 0.16999176 0.2612774 0.15849024 0.16183215
-0.059787095 -0.019855201 -0.28435943 0.2340158 0.19818887 0.21405777 0.2616122 0.30623963
0.20778611 -0.21475455 -0.1405258 0.18907186 0.2609971 0.3143203 -0.18925862 0.18143764

bias_ih_l0 f4 [40]
00000000: fefb 573e 3054 93bd d8ce 0b3e 82c4 e0bd
00000010: ae1f 043e b0c7 033d 00db e93a b0a2 ee3c
00000020: e774 853e 52c7 673e 3da0 4ebe b19b 9cbe
00000030: f0fe cf3d 9e90 0d3e 5a2a 5fbe b6f9 8fbd
00000040: 06cb 4fbe fcb3 ff3d fca1 d33d 887a 87bd
00000050: afca 06be 6c33 063e dcf5 2b3e 6593 28be
00000060: 029b cebd 827e 3cbe 5c78 74be 7521 5cbe
00000070: 6dc7 8cbe 603c 4d3d b4a7 203e 969b 81be
00000080: 0ee6 063e b85f 913d 7614 a5bd b6a8 353e
00000090: caa5 6fbe 5bf5 93be 95e1 9d3e f4df 0b3e
0.21092221 -0.07193792 0.13653123 -0.10974981 0.1290271 0.03217286 0.0017841756 0.02913031
0.26065752 0.22634628 -0.20178314 -0.30587533 0.10156047 0.13824698 -0.217935 -0.070300505
-0.20292291 0.12485501 0.103336304 -0.06615168 -0.13163255 0.13105553 0.16793007 -0.16462477
-0.10088159 -0.18407634 -0.23874038 -0.21497138 -0.274959 0.050106406 0.15688974 -0.25314015
0.13173696 0.07098335 -0.08060543 0.1774014 -0.23403087 -0.2889813 0.30836168 0.1365965

bias_hh_l0 f4 [40]
00000000: 2cfe c53d 54f8 b73d 230d 9e3e 8310 9a3e
00000010: 0869 c53d c7f1 80be 9079 9d3c b2e6 e9bd
00000020: 68e3 973d ac4e 88be de99 673e 2aff 9abe
00000030: 72af f4bd f0ec 473d 1802 003e 16af cdbd
00000040: aea8 26be 22e2 703e d444 063e f532 3fbe
00000050: 8d33 8a3e 3f20 9c3e 8015 f73d 60f8 0c3e
00000060: a0f7 533c c30f 9f3e 145e 80be 7e01 5f3e
00000070: 48a4 163d 3e2e b6bd 9226 673e 5131 25be
00000080: 884d 8dbd 888d 58bd 20d6 533d ab73 943e
00000090: e281 063e 7242 bebd 3644 38be ae73 553e
0.0966762 0.08982912 0.30869398 0.30090722 0.09639174 -0.2518446 0.019223005 -0.11420955
0.07416421 -0.26622522 0.2261729 -0.302728 -0.11947526 0.048809946 0.12500799 -0.100431606
-0.16275284 0.23523763 0.13112193 -0.18671782 0.26992455 0.30493352 0.12064648 0.13766623
0.012937456 0.31066713 -0.25071776 0.21777913 0.036777765 -0.08895539 0.22573307 -0.16132094
-0.068995535 -0.05286935 0.051717877 0.28994498 0.13135484 -0.09290017 -0.1799477 0.2084491
